weights/tf-lite/codae/encoder2_quant_f16.tflite (tflite, 558504 bytes, 17 tensors)

conv-b3/conv2d_81/kernel f2 [3, 3, 64, 256]
000000 1b 23 be 24 91 a9 b5 26 34 2b bb 24 ff a9 45 ab
       0.01388 0.01852 -0.0435 0.0262 0.05627 0.01848 -0.04684 -0.0568
000010 98 19 09 ac 55 22 43 28 79 28 45 a9 07 86 46 aa
       0.002731 -0.06305 0.01237 0.0333 0.03494 -0.04117 -9.197e-05 -0.049
000020 04 aa 64 29 97 a6 4f a7 1f 9d 0c a4 5f 25 72 aa
       -0.047 0.0421 -0.02574 -0.02855 -0.005 -0.01581 0.02098 -0.05035
000030 c3 a9 90 22 65 a3 4f 20 d4 24 1d 26 5e a8 bd a2
       -0.045 0.01282 -0.01444 0.008415 0.01886 0.02388 -0.03412 -0.01316
000040 99 a5 04 a7 be 2b bd 23 a8 2c 1e 2a 0c 2c 3f 1e
       -0.02187 -0.0274 0.0605 0.015114 0.07275 0.0478 0.06323 0.0061
000050 45 a6 de aa 45 ae ac 24 35 2b 56 ab 30 29 6e a9
       -0.02449 -0.05365 -0.09796 0.01825 0.0563 -0.0573 0.04053 -0.04242
000060 5a 29 02 2d 78 93 8b 25 63 a9 a5 ab fb 1c c5 25
       0.0418 0.07825 -0.0009117 0.02165 -0.04208 -0.05972 0.004864 0.02254
000070 a3 28 b8 96 c0 a8 78 28 83 a4 3c 25 f6 2a 58 a9
       0.03622 -0.00164 -0.0371 0.0349 -0.01762 0.02045 0.05438 -0.04175
000080 a1 ad 8e a1 f7 a0 09 8c 6e 2c 55 a8 cb a4 24 2a
       -0.08795 -0.01085 -0.0097 -0.0002463 0.0692 -0.03384 -0.01872 0.04797
000090 0c 27 3a a9 1b 28 c5 aa b7 27 0c a6 74 ab 2f 2a
       0.02753 -0.04083 0.03207 -0.0529 0.03014 -0.02362 -0.05823 0.0483
0000a0 61 9f 92 25 55 21 5d a3 fd 21 35 a7 30 24 51 a8
       -0.007206 0.02176 0.010414 -0.01438 0.011696 -0.02815 0.01636 -0.03372
0000b0 fb 2a 67 2a c9 a5 40 ac 61 aa fc 1d ac 25 82 1d
       0.05453 0.05002 -0.0226 -0.0664 -0.04984 0.005844 0.02216 0.00538
0000c0 d4 23 88 a6 c4 21 49 24 60 90 36 a3 8d ac 6a a9
       0.01529 -0.02551 0.01126 0.01674 -0.000534 -0.014084 -0.0711 -0.0423
0000d0 46 28 6f a6 b0 12 2e a9 34 2d a0 a9 0e ab f9 a5
       0.0334 -0.02513 0.0008163 -0.04047 0.0813 -0.04395 -0.0551 -0.02333
0000e0 8c a4 3f 23 43 27 90 a7 0b 26 d6 a9 cb 27 a3 a9
       -0.01776 0.01415 0.02837 -0.02954 0.0236 -0.0456 0.03044 -0.04404
0000f0 c4 aa d9 a5 cd a4 ab a8 53 20 33 ab c1 24 6c 24
       -0.05286 -0.02284 -0.01875 -0.03647 0.008446 -0.05624 0.01857 0.01727
000100 57 21 8c 24 7d ab 63 a1 8c 26 e7 a9 be 22 10 ac
       0.01043 0.01776 -0.0585 -0.01052 0.02557 -0.0461 0.01317 -0.0635
000110 df a2 f9 2d 57 ab 4f 2f f4 2a 95 28 cb a6 d5 a6
       -0.01342 0.0933 -0.05734 0.1142 0.05432 0.0358 -0.02654 -0.02669
000120 25 26 6c 26 7f 27 3b a9 04 a8 07 a0 f1 a8 0b 2b
       0.024 0.02509 0.02928 -0.04086 -0.03137 -0.007866 -0.0386 0.05502
000130 af 29 33 a0 f1 22 aa 28 9f a6 b7 a6 82 9c 6a 27
       0.0444 -0.0082 0.01356 0.03644 -0.02586 -0.02623 -0.004402 0.02896
000140 50 a8 84 21 17 ab 7f 28 28 25 fd 20 40 1e b3 a9
       -0.0337 0.01077 -0.0554 0.03513 0.02014 0.00974 0.006104 -0.04453
000150 ae a8 ed 29 88 99 06 9d b2 a8 24 ab bc aa 2d a6
       -0.03656 0.0463 -0.0027 -0.004906 -0.03668 -0.0558 -0.0526 -0.02412
000160 65 a8 77 a1 df 20 89 b0 0b ac bf 29 0f 25 e1 25
       -0.03433 -0.01067 0.009514 -0.1417 -0.0632 0.0449 0.01976 0.02296
000170 59 24 0b a1 7e a5 a0 ae 0f a4 15 23 7f a2 ab a0
       0.01698 -0.00985 -0.02145 -0.1035 -0.01585 0.01383 -0.01269 -0.00912
000180 91 a3 d5 a8 81 28 24 a9 b2 ad 68 26 2e a6 37 2c
       -0.01478 -0.03775 0.0352 -0.04016 -0.089 0.02502 -0.02414 0.06586
000190 63 a5 0f aa 67 1e 22 2a d1 28 5b 24 56 a6 4f a6
       -0.02104 -0.04733 0.006252 0.0479 0.03763 0.01701 -0.02475 -0.02464
0001a0 cf a4 f4 23 37 ac d2 a4 66 2a 8a aa a0 a0 01 24
       -0.01878 0.01553 -0.06586 -0.01883 0.05 -0.0511 -0.00903 0.01564
0001b0 06 9f eb 9c d0 ab 19 25 69 20 d0 a7 fd ab f9 27
       -0.00686 -0.004803 -0.06104 0.01991 0.00861 -0.03052 -0.0624 0.03114
0001c0 16 ab 02 a1 33 a9 e7 1c 7a a9 0e 26 9e 2a 4a a9
       -0.05536 -0.00978 -0.04062 0.004787 -0.0428 0.02365 0.0517 -0.04132
0001d0 90 a0 ea a1 e9 0c 71 a8 67 a8 a5 a8 cd 26 47 2e
       -0.00891 -0.01155 0.0002997 -0.0347 -0.0344 -0.0363 0.02657 0.0981
0001e0 f1 a9 3e b0 70 ac aa a9 b0 2a aa ac 1a 24 0d a8
       -0.04642 -0.1326 -0.06934 -0.04425 0.05225 -0.0729 0.01602 -0.03165
0001f0 31 27 9e ab 98 a1 ec a7 7d 28 21 a1 4e a8 81 21
       0.02809 -0.0595 -0.010925 -0.03094 0.03506 -0.01002 -0.03363 0.01075

conv-b3/conv2d_81/bias f2 [256]
000000 c5 92 32 95 d6 90 8a 8c 61 83 d1 89 fc 0e 4e 0b
       -0.0008264 -0.001268 -0.0005903 -0.000277 -5.156e-05 -0.0001775 0.0004263 0.0002229
000010 82 00 75 11 19 10 37 8c 26 87 98 8d dd 91 0c 14
       7.75e-06 0.000666 0.0005 -0.0002573 -0.0001091 -0.0003414 -0.0007157 0.000988
000020 b0 8e 21 0d 70 0a ee 14 02 89 9d 8a 9d 0b 45 0f
       -0.0004082 0.000313 0.0001965 0.001204 -0.0001528 -0.0002018 0.0002323 0.0004437
000030 cf 09 da 08 7a 94 44 03 0b 0c 7c 81 62 8a 7c 91
       0.0001773 0.000148 -0.001093 4.98e-05 0.0002468 -2.265e-05 -0.0001948 -0.0006695
000040 66 8d f3 92 55 91 50 84 93 12 03 90 55 8d 49 91
       -0.0003295 -0.0008483 -0.000651 -6.58e-05 0.0008025 -0.0004897 -0.0003254 -0.000645
000050 0b 12 07 8a 72 81 da 0c 98 8d 50 14 a0 85 af 0d
       0.0007377 -0.0001839 -2.205e-05 0.000296 -0.0003414 0.001053 -8.583e-05 0.000347
000060 0b 84 d4 91 9c 04 f3 08 a2 15 a8 85 55 18 00 0f
       -6.17e-05 -0.0007114 7.033e-05 0.000151 0.001375 -8.63e-05 0.002115 0.0004272
000070 e9 02 d2 8c 19 80 ca 02 e3 10 62 14 e3 11 75 8b
       4.44e-05 -0.0002942 -1.5e-06 4.256e-05 0.0005965 0.00107 0.0007186 -0.0002276
000080 a4 14 c3 8c d9 8e 24 0a d8 00 94 90 2c 81 2d 8b
       0.001133 -0.0002906 -0.000418 0.0001874 1.29e-05 -0.000559 -1.79e-05 -0.000219
000090 0b 08 67 12 42 8c e7 16 4e 10 aa 88 16 11 0a 08
       0.0001234 0.0007815 -0.0002599 0.001685 0.0005255 -0.0001423 0.000621 0.0001233
0000a0 10 88 26 14 6d 04 0c 8d ba 94 3a 11 1f 94 c5 85
       -0.000124 0.001013 6.753e-05 -0.000308 -0.001154 0.000638 -0.001006 -8.804e-05
0000b0 3c 09 fd 0d 3a 8e f1 0a 88 10 55 14 c6 0c 7a 0a
       0.0001597 0.0003655 -0.00038 0.0002118 0.000553 0.001058 0.0002913 0.0001976
0000c0 a5 13 c7 02 84 00 a9 09 7a 8b 58 87 cd 84 21 94
       0.000933 4.24e-05 7.87e-06 0.0001727 -0.0002282 -0.00011206 -7.325e-05 -0.001008
0000d0 52 08 2e 05 c4 01 07 0c 6c 93 f4 91 5b 90 f0 10
       0.0001318 7.904e-05 2.694e-05 0.0002458 -0.000906 -0.0007267 -0.0005317 0.0006027
0000e0 92 0b 23 94 c7 8c 86 16 a3 94 1c 13 e9 90 93 91
       0.000231 -0.00101 -0.0002916 0.001593 -0.001132 0.000868 -0.0005994 -0.0006804
0000f0 11 88 05 92 6d 8c ba 85 08 0b 1c 8c 08 88 8f 83
       -0.0001241 -0.000735 -0.0002701 -8.74e-05 0.0002146 -0.0002508 -0.000123 -5.43e-05
000100 fb 80 e3 87 d4 8e 67 10 c9 86 92 14 46 94 4c 05
       -1.496e-05 -0.00012034 -0.0004168 0.0005374 -0.00010353 0.001116 -0.001043 8.08e-05
000110 24 81 ca 95 1c 0c 67 08 32 06 5d 8b d7 8c 73 8b
       -1.74e-05 -0.001413 0.0002508 0.0001343 9.453e-05 -0.0002247 -0.0002954 -0.0002273
000120 ec 82 02 0e d2 0d 4e 8c 2f 0e 72 0f 33 0a 08 0b
       -4.46e-05 0.0003667 0.0003552 -0.0002627 0.0003774 0.0004544 0.0001892 0.0002146
000130 39 0d cb 95 91 06 71 8e f4 0c 18 92 57 8d 8c 8f
       0.0003188 -0.001414 0.0001002 -0.0003932 0.0003023 -0.000744 -0.000326 -0.0004606
000140 08 94 43 94 25 88 15 90 36 8d 07 94 aa 91 04 0c
       -0.000984 -0.00104 -0.0001265 -0.0004983 -0.000318 -0.000983 -0.0006914 0.000245
000150 d4 0f e5 0d d6 88 50 11 7d 02 e1 84 fc 08 85 91
       0.0004778 0.0003598 -0.0001476 0.0006485 3.797e-05 -7.445e-05 0.0001521 -0.000674
000160 93 85 12 88 d7 92 11 0c 83 10 ec 11 4a 94 54 88
       -8.506e-05 -0.0001242 -0.000835 0.0002482 0.0005507 0.000723 -0.001047 -0.0001321
000170 b0 8c fd 94 10 90 9e 14 c8 09 a8 0e 20 8c a2 93
       -0.000286 -0.001218 -0.000496 0.001127 0.0001764 0.0004063 -0.0002518 -0.0009317
000180 2d 81 73 95 32 12 51 03 2b 92 c9 11 13 8e d5 0f
       -1.794e-05 -0.00133 0.0007563 5.06e-05 -0.000753 0.000706 -0.0003707 0.000478
000190 0b 0a b0 8a 1f 90 dc 14 2a 98 d4 8f f0 8a 21 91
       0.0001844 -0.0002041 -0.000503 0.001186 -0.002033 -0.0004778 -0.0002117 -0.000626
0001a0 02 13 51 15 2d 0e 66 17 d8 80 c5 14 33 86 1c 00
       0.0008554 0.001298 0.000377 0.001806 -1.29e-05 0.001164 -9.46e-05 1.67e-06
0001b0 a0 96 13 91 29 07 5a 94 0f 84 cf 92 8b 89 a4 94
       -0.001617 -0.0006194 0.00010926 -0.001062 -6.19e-05 -0.000831 -0.0001692 -0.001133
0001c0 df 12 f1 04 6c 01 b2 04 c2 08 ef 0b 1a 95 e8 13
       0.0008388 7.54e-05 2.17e-05 7.164e-05 0.0001452 0.0002421 -0.0012455 0.000965
0001d0 06 14 f1 00 2d 96 ff 0c 7c 0b 27 0c ce 8e 55 0b
       0.000982 1.436e-05 -0.001508 0.000305 0.0002284 0.0002534 -0.0004153 0.0002238
0001e0 18 0d d7 88 7d 83 54 90 f4 0a 28 11 23 11 01 9a
       0.000311 -0.0001477 -5.32e-05 -0.0005283 0.0002122 0.0006294 0.000627 -0.002932
0001f0 c6 8d c7 0d b0 13 71 13 f4 90 c8 89 f2 85 f2 15
       -0.0003524 0.0003526 0.0009384 0.0009084 -0.0006046 -0.0001764 -9.07e-05 0.0014515

conv-b2/conv2d_80/kernel f2 [3, 3, 64, 128]
000000 5e a6 50 a5 60 2a 23 28 d5 a4 d8 90 62 24 32 21
       -0.02487 -0.02075 0.0498 0.03232 -0.01888 -0.0005913 0.01712 0.01015
000010 6f 21 ec 24 e0 28 8d 2d fd a2 95 25 38 24 db a9
       0.01061 0.01923 0.0381 0.08673 -0.01365 0.0218 0.01648 -0.04575
000020 1b 1d be a9 c1 a2 2e 29 94 28 85 23 8c 22 b0 26
       0.004986 -0.04486 -0.01319 0.04047 0.03577 0.01469 0.01279 0.02612
000030 87 ad 86 21 3a 23 0f 24 de 27 ff 9d 39 24 0b 26
       -0.08636 0.01079 0.014114 0.01585 0.03073 -0.005856 0.0165 0.0236
000040 6f a9 17 a4 5a a9 72 a8 c3 27 a1 1a 0a 8f b7 a0
       -0.04245 -0.01598 -0.0418 -0.03473 0.03032 0.003237 -0.0004296 -0.00921
000050 29 26 b3 1f 0a 20 12 a8 05 ab 04 a5 13 2b 41 27
       0.02406 0.00752 0.00789 -0.0318 -0.05484 -0.01959 0.05527 0.02834
000060 0f aa 75 a9 12 28 00 27 85 1e bb a4 f4 a4 58 a8
       -0.04733 -0.04263 0.0318 0.02734 0.006367 -0.01848 -0.01935 -0.03394
000070 79 2a e9 17 d7 1e b7 95 2e ad d8 98 a8 a4 60 a4
       0.05057 0.001931 0.00668 -0.001395 -0.08093 -0.002365 -0.01819 -0.01709
000080 49 28 91 a1 32 a7 b5 a7 f7 a5 84 a8 d4 9e bc 28
       0.03348 -0.01087 -0.0281 -0.0301 -0.0233 -0.03528 -0.006668 0.037
000090 46 2b ff 26 2c a3 f3 a4 d6 25 56 1e 86 a9 fc 29
       0.05682 0.02733 -0.01401 -0.01933 0.0228 0.006187 -0.04315 0.04675
0000a0 6a aa b8 28 4e ad ae a6 05 28 02 a0 6a 2b 7d 9b
       -0.0501 0.03687 -0.0829 -0.0261 0.0314 -0.00783 0.05792 -0.003656
0000b0 9d 25 a8 a9 2e aa 07 22 0c 13 70 29 92 24 da a9
       0.02193 -0.0442 -0.04828 0.01177 0.00086 0.04248 0.01785 -0.04572
0000c0 5b a9 f9 19 87 a9 23 2a ed aa 5a a6 8e ad 7e 9c
       -0.04184 0.002916 -0.04318 0.04794 -0.0541 -0.02481 -0.0868 -0.004387
0000d0 44 28 af 28 13 a8 4e ac 28 a9 25 23 78 2b 42 a9
       0.03333 0.0366 -0.03183 -0.06726 -0.04028 0.013954 0.05835 -0.04108
0000e0 be ac 18 2c 89 a8 58 2b ce a4 2b 2a ef ab 3b 25
       -0.0741 0.06396 -0.03543 0.05737 -0.01877 0.0482 -0.06198 0.02043
0000f0 68 2c d8 1d 4f ad 89 29 08 9f 37 a8 4d 20 3c 2b
       0.06885 0.005707 -0.08295 0.04324 -0.006866 -0.03293 0.0084 0.05652
000100 4c 25 6b a4 08 2a f0 a5 3a 9e 67 a4 8a 26 50 1c
       0.02069 -0.01726 0.04712 -0.0232 -0.00608 -0.0172 0.02554 0.00421
000110 ab 9b 7f a5 8e a9 ec 16 84 a7 ea 22 d1 23 e1 aa
       -0.003744 -0.02147 -0.0434 0.00169 -0.02936 0.013504 0.01527 -0.05374
000120 9b a8 53 ac 85 a7 f0 2c 01 a4 9b a9 12 29 8f 21
       -0.03598 -0.06757 -0.02937 0.07715 -0.01564 -0.0438 0.0396 0.01086
000130 3a aa 7c a6 a1 9a de a1 ec a2 ad ad fa a4 9d a2
       -0.04865 -0.02533 -0.003237 -0.01146 -0.01352 -0.0887 -0.01944 -0.01292
000140 4b a4 ed a0 c8 a4 1b a7 3d a3 59 a1 34 a4 6f a4
       -0.01677 -0.00962 -0.01868 -0.02776 -0.01414 -0.010445 -0.01642 -0.01732
000150 fc 23 47 a9 93 aa 3c ab db 2a 44 a0 02 a3 37 af
       0.015594 -0.04123 -0.05136 -0.05652 0.05356 -0.00833 -0.01369 -0.11273
000160 b7 aa 17 a9 1d aa 42 a4 27 26 f0 a6 0a a6 1f a0
       -0.05246 -0.03976 -0.04776 -0.01663 0.02403 -0.0271 -0.02359 -0.00805
000170 98 29 3a 25 30 a3 57 a3 0a ac c9 ab 8e a3 1e 27
       0.0437 0.02042 -0.01404 -0.014336 -0.0631 -0.06082 -0.014755 0.0278
000180 fe a6 b4 1a 17 20 6a a7 2a 0d 15 a8 a3 ab ae a0
       -0.02731 0.003273 0.00799 -0.02896 0.0003152 -0.0319 -0.05966 -0.00914
000190 86 a1 3c 27 8f a5 e4 a8 87 24 7b 29 1b 9f 54 a5
       -0.01079 0.02826 -0.02171 -0.0382 0.01768 0.04282 -0.00694 -0.02081
0001a0 e2 9e 33 27 a5 1a a3 a7 b0 2d 76 1e 21 1e f8 a9
       -0.00672 0.02812 0.003244 -0.02983 0.08887 0.00631 0.005985 -0.04663
0001b0 96 a2 ca ac eb 20 c9 20 5b aa 72 a6 78 a2 01 a9
       -0.01286 -0.0748 0.009605 0.009346 -0.04965 -0.02518 -0.012634 -0.0391
0001c0 79 a2 88 88 84 21 29 9e 0f 2a 2f aa 4f 19 18 a9
       -0.01264 -0.0001383 0.01077 -0.006016 0.04733 -0.0483 0.002592 -0.0398
0001d0 8a a8 4b 2a d4 a2 70 ab ba 1e 5c a9 f2 9d b2 a7
       -0.03546 0.04916 -0.013336 -0.0581 0.00657 -0.04187 -0.005806 -0.03006
0001e0 b4 a7 15 a1 ca 1c 1b ad 03 0f df a7 6a a8 ee 2c
       -0.03009 -0.009926 0.004677 -0.0798 0.000428 -0.03075 -0.0345 0.077
0001f0 d8 14 2d 29 8c 22 e6 99 92 a9 ca 29 96 9a 70 a1
       0.001183 0.04044 0.01279 -0.00288 -0.04352 0.04523 -0.003216 -0.01062

conv-b2/conv2d_80/bias f2 [128]
000000 09 0d 07 94 ee 19 5f 0f dd 92 92 8b 45 98 3f 14
       0.0003073 -0.000983 0.002895 0.00045 -0.000838 -0.000231 -0.002085 0.001037
000010 db 0e 6f 09 de 86 19 0b 57 12 d6 93 da 13 2b 1e
       0.0004184 0.0001658 -0.0001048 0.0002166 0.000774 -0.0009565 0.0009584 0.006023
000020 a3 94 46 8e da 15 ee 12 32 90 be 04 3c 8d 42 94
       -0.001132 -0.000383 0.001429 0.000846 -0.000512 7.236e-05 -0.0003195 -0.0010395
000030 d4 1a 97 18 ef 8a 38 91 7f 18 10 93 7a 8a 2b 99
       0.003334 0.002241 -0.0002116 -0.000637 0.002195 -0.000862 -0.0001976 -0.002523
000040 da 97 6a 11 13 10 a3 97 52 98 c2 8c 19 14 8f 0e
       -0.001917 0.000661 0.0004973 -0.001864 -0.00211 -0.0002904 0.001 0.0004003
000050 34 97 34 93 42 01 17 91 c5 1c 28 98 ee 8f 4d 17
       -0.001759 -0.0008793 1.92e-05 -0.0006213 0.004658 -0.00203 -0.000484 0.001782
000060 44 9a 6f 01 8e 98 ff 93 76 14 8d 91 8e 0a 04 81
       -0.00306 2.19e-05 -0.002224 -0.000976 0.001089 -0.0006776 0.0002 -1.55e-05
000070 c5 94 1a 05 41 94 c9 94 21 91 6f 97 5b 96 c8 91
       -0.001164 7.784e-05 -0.001039 -0.001168 -0.000626 -0.001815 -0.001552 -0.0007057
000080 0c 13 93 11 f9 12 18 9b 79 98 9c 91 86 95 17 90
       0.00086 0.0006804 0.000851 -0.003464 -0.002184 -0.0006847 -0.0013485 -0.0004992
000090 e1 14 7c 0a 1b 14 56 95 e4 0e 31 96 38 19 01 98
       0.001191 0.0001979 0.001002 -0.001303 0.0004206 -0.001512 0.002548 -0.001955
0000a0 c5 11 0b 19 0c 1b 28 88 b8 14 01 1c 5f 12 97 98
       0.0007043 0.002462 0.00344 -0.0001268 0.001152 0.00391 0.0007777 -0.002241
0000b0 98 10 d2 94 ce 10 59 0d 45 0a e9 10 7c 14 2e 8a
       0.0005608 -0.001177 0.0005865 0.0003264 0.0001913 0.0005994 0.001095 -0.0001886
0000c0 75 18 f8 90 d0 8e ca 16 17 14 c7 09 d3 92 b2 10
       0.002176 -0.0006065 -0.0004158 0.0016575 0.0009985 0.0001763 -0.000833 0.000573
0000d0 b5 98 63 94 e6 0d 92 18 a8 9a 75 81 2f 94 0b 16
       -0.002298 -0.001071 0.00036 0.002232 -0.00325 -2.223e-05 -0.001021 0.001475
0000e0 21 98 41 15 04 94 15 8c 0d 0d b2 18 46 12 47 15
       -0.002016 0.001283 -0.00098 -0.0002491 0.0003083 0.002293 0.000766 0.001288
0000f0 7c 84 01 99 41 97 4a 96 c9 8d 6f 94 b0 9c 21 12
       -6.84e-05 -0.002443 -0.001771 -0.001535 -0.000353 -0.001082 -0.004578 0.000748

conv-b1/conv2d_79/kernel f2 [3, 3, 32, 128]
000000 08 20 c2 ac e0 ab ad 21 74 1c b3 1d e7 94 37 2c
       0.00787 -0.07434 -0.06152 0.011086 0.00435 0.005566 -0.001197 0.06586
000010 4e a4 f7 2f b8 aa 12 9a fe aa 90 25 de 29 26 2d
       -0.01682 0.12445 -0.0525 -0.002964 -0.05463 0.02173 0.04584 0.08044
000020 6a 26 36 a8 32 21 54 ad 39 ad 15 28 1c 28 5d 27
       0.02505 -0.0329 0.01015 -0.08325 -0.0816 0.0319 0.0321 0.02876
000030 07 12 4f 9a 93 a2 25 28 7f a9 67 a4 85 17 d0 a0
       0.0007358 -0.00308 -0.01284 0.03238 -0.04294 -0.0172 0.001836 -0.0094
000040 ac 11 38 ac 4a a2 89 a9 f6 19 b7 27 69 a9 63 aa
       0.0006924 -0.0659 -0.01228 -0.04324 0.00291 0.03014 -0.04227 -0.0499
000050 ad ac a7 a8 c3 27 2d a4 98 97 67 2c 0d a5 8a 9d
       -0.07306 -0.03635 0.03032 -0.01631 -0.001854 0.0688 -0.01973 -0.00541
000060 50 ac cd 23 ad ad 22 28 21 2a c6 98 2e a6 b3 a4
       -0.0674 0.015236 -0.0887 0.0323 0.04788 -0.00233 -0.02414 -0.01836
000070 10 2b e2 ab 80 28 d1 2d d4 ab 19 ab a6 a9 28 24
       0.05518 -0.06158 0.03516 0.0909 -0.06116 -0.05545 -0.04413 0.01624
000080 f8 9b 2e aa 64 24 6d 2e 07 9b 0c a4 0e a6 81 b5
       -0.003891 -0.04828 0.01715 0.1004 -0.003431 -0.01581 -0.02365 -0.344
000090 e4 a8 28 1c b2 97 88 a5 03 2d 40 ad 96 aa 17 81
       -0.0382 0.00406 -0.001879 -0.0216 0.0783 -0.08203 -0.05145 -1.66e-05
0000a0 e5 24 10 aa 4b 21 44 a4 db 28 d8 29 be 24 7f 28
       0.01912 -0.04736 0.01034 -0.01666 0.03793 0.04565 0.01852 0.03513
0000b0 c1 26 26 2d 08 1f 0a 2d 7a ae 80 a7 7a b3 68 2b
       0.02638 0.08044 0.006866 0.07874 -0.1012 -0.0293 -0.2336 0.05786
0000c0 8d a3 11 a8 2e 2e 49 30 6f 2d 9e af 77 aa 9c a8
       -0.01475 -0.03177 0.09656 0.1339 0.0849 -0.119 -0.0505 -0.036
0000d0 3b 21 7c 2b 74 27 fd a7 3f a1 3b 25 b3 1a c9 29
       0.010216 0.05847 0.02911 -0.0312 -0.01025 0.02043 0.003271 0.0452
0000e0 6a 28 89 ac 86 ad 40 28 0c ac ad ac 23 2b 08 b2
       0.0345 -0.07086 -0.0863 0.0332 -0.06323 -0.07306 0.05576 -0.1885
0000f0 48 ac 8d ac 7a a9 88 b0 94 b1 9b 2a a6 2e a3 30
       -0.0669 -0.0711 -0.0428 -0.1416 -0.1743 0.0516 0.1039 0.1449
000100 77 a2 8d a9 79 2a 4c 99 9a 1b 97 a6 28 ac c8 aa
       -0.01263 -0.04337 0.05057 -0.002586 0.003712 -0.02574 -0.06494 -0.05298
000110 bb 2a d7 ac 21 ab d2 aa bf ab ca aa 3d 25 0b ac
       0.05258 -0.0756 -0.0557 -0.05328 -0.06052 -0.05304 0.02046 -0.0632
000120 ba a8 ee 25 e6 95 28 28 71 ac 01 29 13 ac 2a 2a
       -0.03693 0.02316 -0.00144 0.03247 -0.0694 0.0391 -0.06366 0.04816
000130 be 28 26 28 d3 8d 3b ac a0 2a 3c 2a 3f a5 72 aa
       0.03705 0.0324 -0.0003555 -0.0661 0.05176 0.0487 -0.0205 -0.05035
000140 f6 a5 16 27 ca 18 c9 2a 08 9a 20 29 54 24 60 29
       -0.02328 0.02768 0.002338 0.053 -0.002945 0.04004 0.0169 0.042
000150 e8 9e 97 a9 cf 27 9c a8 9f a7 39 24 07 2b 59 2c
       -0.006744 -0.04367 0.0305 -0.036 -0.02977 0.0165 0.0549 0.06793
000160 8d a3 5a 28 16 2b b9 a8 d8 a8 a3 ac 56 a8 c7 ac
       -0.01475 0.034 0.05536 -0.0369 -0.03784 -0.07245 -0.03387 -0.07465
000170 63 2c 8c a9 cc ac 4f 9a f2 a6 28 24 ec a9 f3 a9
       0.06854 -0.04333 -0.07495 -0.00308 -0.02713 0.01624 -0.04626 -0.04648
000180 58 ab 28 27 16 27 13 a9 4b 23 02 91 81 99 37 ae
       -0.05737 0.02795 0.02768 -0.03964 0.014244 -0.0006113 -0.002687 -0.0971
000190 8f 29 64 99 24 2c b4 a0 70 a4 7f 29 db ac 55 a8
       0.04343 -0.002632 0.0647 -0.009186 -0.01733 0.04294 -0.07587 -0.03384
0001a0 40 2f 3e 2c 45 24 b9 a9 a3 a5 06 29 a4 25 8d ac
       0.1133 0.0663 0.01668 -0.0447 -0.02202 0.03925 0.02203 -0.0711
0001b0 45 9d 32 a9 e9 a8 29 1e 57 24 10 2c 60 21 51 28
       -0.005146 -0.0406 -0.03836 0.006016 0.01695 0.0635 0.0105 0.03372
0001c0 ca 28 6c a5 5f 20 f0 a2 cc 2a 79 29 6e a3 96 8f
       0.0374 -0.02118 0.00854 -0.01355 0.0531 0.04276 -0.01451 -0.000463
0001d0 4b 22 fd 98 4e 19 f1 2a 7c 27 0c 2a d7 a0 8a ac
       0.01229 -0.002436 0.00259 0.05423 0.02924 0.04724 -0.00945 -0.0709
0001e0 e0 aa 19 2d fe ac 64 ac fc ae b7 aa 97 9d 33 a8
       -0.0537 0.07965 -0.078 -0.0686 -0.10913 -0.05246 -0.00546 -0.0328
0001f0 11 25 e5 27 68 ab 17 2c 7c ac 10 2a 4d 24 a6 2e
       0.01979 0.03084 -0.05786 0.0639 -0.07007 0.04736 0.0168 0.1039

conv-b1/conv2d_79/bias f2 [128]
000000 71 21 93 96 5e 9e a2 9a da 0e 3b 95 35 19 59 96
       0.01063 -0.001605 -0.006218 -0.003239 0.0004182 -0.001277 0.002542 -0.00155
000010 ae 8a c9 14 28 a0 db 17 50 9c 67 17 ac 1b 2b 21
       -0.0002038 0.001168 -0.00812 0.001918 -0.00421 0.001807 0.003746 0.01009
000020 40 9e de 19 91 9f 11 9b 75 1c 27 9d ff 95 1d 0e
       -0.006104 0.002865 -0.00739 -0.00345 0.004353 -0.00503 -0.001464 0.0003731
000030 84 9c 55 11 f9 92 c2 9c b8 99 44 0c 88 8d cd 9e
       -0.00441 0.000651 -0.000851 -0.004646 -0.002792 0.0002604 -0.0003376 -0.00664
000040 af 0c 78 92 3c 98 3a 1b 24 18 78 8d c1 9e b1 15
       0.0002859 -0.0007896 -0.002068 0.003529 0.002022 -0.0003338 -0.006596 0.0013895
000050 6f 18 90 93 aa 14 f1 1b e8 98 68 0d bf 15 3c 1c
       0.002165 -0.000923 0.001139 0.003878 -0.002396 0.00033 0.001403 0.004135
000060 75 21 2c 12 1d 17 47 14 48 10 e0 99 66 13 5f 11
       0.01066 0.0007534 0.001737 0.001044 0.0005226 -0.002869 0.000903 0.0006557
000070 30 0e 6b 1c 26 99 07 91 11 99 12 1e 48 15 7e 0b
       0.0003777 0.004314 -0.002514 -0.0006137 -0.002474 0.005928 0.001289 0.0002286
000080 7e 15 bc 1e c7 1c 86 1f e1 22 93 98 e1 9f 74 17
       0.001341 0.006577 0.004665 0.007347 0.013435 -0.002234 -0.007694 0.00182
000090 b2 a2 bc 21 49 1c 9b 0f a2 a2 fd 9d 76 9c a8 1b
       -0.01308 0.0112 0.004185 0.0004642 -0.012955 -0.005848 -0.004356 0.003738
0000a0 ea 91 52 17 a8 19 19 1d 0b 96 6e 1a ad 0e 4a 99
       -0.000722 0.001787 0.002762 0.00498 -0.001475 0.00314 0.0004075 -0.002583
0000b0 29 9d 02 9d 3e 14 a4 1e d9 98 81 10 98 10 54 a2
       -0.00504 -0.00489 0.001036 0.006485 -0.002367 0.00055 0.0005608 -0.01236
0000c0 fe 16 c0 19 d0 98 5d 15 11 18 5d 9a 04 9a 8a 8d
       0.001707 0.002808 -0.00235 0.001309 0.001986 -0.003107 -0.002937 -0.000338
0000d0 0f 21 28 1b e3 11 e2 95 2a a0 a4 92 c0 94 10 1c
       0.00988 0.003494 0.0007186 -0.001436 -0.00813 -0.0008106 -0.00116 0.003967
0000e0 08 1d 6e 92 01 18 09 97 ea 1c 99 11 ba 20 02 9b
       0.004913 -0.000785 0.001955 -0.001718 0.0048 0.0006833 0.00923 -0.003422
0000f0 e2 18 24 97 1c 95 a7 18 40 94 04 90 f5 a3 5e 91
       0.002384 -0.001743 -0.001247 0.002272 -0.001038 -0.00049 -0.01554 -0.000655

Mask-Encoder/conv-b0/instance_normalization_68/Reshape_1 f2 [1, 1, 1, 64]
000000 ee 29 b1 2a 31 2c 12 29 94 2a e3 29 e8 28 66 2b
       0.04633 0.05228 0.0655 0.0396 0.0514 0.046 0.03833 0.0578
000010 1c 29 c0 2c 7a 27 f4 29 05 2a b6 a2 12 2b 01 2b
       0.03992 0.0742 0.0292 0.0465 0.04703 -0.01311 0.05524 0.05472
000020 91 2b 79 2a b8 2a 82 af 1a 2a 30 2a 84 9a 50 2a
       0.0591 0.05057 0.0525 -0.1173 0.04767 0.04834 -0.003181 0.04932
000030 80 2a b8 26 b1 2b cc a9 01 2b a4 29 0a 2b eb 29
       0.05078 0.02625 0.0601 -0.0453 0.05472 0.04407 0.055 0.04623
000040 84 28 cf 28 37 29 f9 28 2e 2b 0c b0 a2 28 3e 29
       0.03528 0.03757 0.04074 0.03885 0.0561 -0.1265 0.0362 0.04095
000050 be 26 91 20 9c 28 79 a3 3f 2a 6f 28 44 a4 f2 29
       0.02634 0.00892 0.036 -0.014595 0.0488 0.03464 -0.01666 0.04645
000060 2e ac 98 29 b3 28 38 2a 07 29 58 29 73 21 e5 29
       -0.0653 0.0437 0.0367 0.04858 0.03928 0.04175 0.01064 0.04605
000070 f6 28 a4 28 87 25 61 29 e0 28 c8 27 ef 27 93 ab
       0.03876 0.03625 0.02159 0.04202 0.0381 0.0304 0.03099 -0.05917

Mask-Encoder/conv-b0/instance_normalization_68/Reshape f2 [1, 1, 1, 64]
000000 43 37 22 37 a8 36 e2 36 4a 37 50 37 1a 37 2b 36
       0.4539 0.4458 0.416 0.4302 0.4556 0.457 0.4438 0.3855
000010 e6 36 14 37 62 37 ce 36 1d 37 bc 36 4d 37 3a 37
       0.4312 0.4424 0.4614 0.4253 0.4446 0.421 0.4563 0.4517
000020 da 36 67 37 b1 36 63 35 20 37 d0 36 9e 36 53 36
       0.4282 0.4626 0.4182 0.3367 0.4453 0.4258 0.4136 0.3953
000030 3e 37 e6 37 48 37 1f 36 0b 37 30 37 4f 37 a4 37
       0.4526 0.4937 0.455 0.3826 0.4402 0.4492 0.4568 0.4775
000040 06 38 bc 36 aa 38 20 37 44 37 75 35 14 37 61 37
       0.503 0.421 0.583 0.4453 0.454 0.341 0.4424 0.4612
000050 fd 36 f0 36 ed 36 07 35 8f 36 d9 36 d6 35 30 37
       0.4368 0.4336 0.4329 0.3142 0.41 0.428 0.3647 0.4492
000060 c9 35 d0 36 89 37 47 37 c8 37 e8 36 05 37 71 37
       0.3616 0.4258 0.471 0.4548 0.4863 0.4316 0.4387 0.465
000070 e8 37 48 37 3c 37 94 37 d1 36 ff 36 68 37 92 31
       0.4941 0.455 0.4521 0.4736 0.426 0.4373 0.463 0.1741

Mask-Encoder/conv-b1/instance_normalization_69/Reshape_1 f2 [1, 1, 1, 128]
000000 e3 1e 04 a0 49 1f 44 a4 85 b1 d2 98 da b0 a5 91
       0.006725 -0.00784 0.007114 -0.01666 -0.1725 -0.002354 -0.1516 -0.000689
000010 1d b1 d1 b0 ae 8d 4a b1 41 19 85 b2 66 20 cd 0e
       -0.1598 -0.1505 -0.0003467 -0.1653 0.002565 -0.2037 0.00859 0.000415
000020 99 1f d9 12 73 1e 79 99 03 a1 ef 1c c6 9f 43 af
       0.00742 0.000836 0.006298 -0.002672 -0.00979 0.004818 -0.00759 -0.11346
000030 1e a0 ce b0 3e 11 82 1e 56 1c 56 18 ad af 39 21
       -0.00804 -0.1501 0.00064 0.006355 0.004234 0.002117 -0.11993 0.0102
000040 a2 b0 53 b0 20 9c be b2 a5 b0 e3 b0 da 1e 74 1a
       -0.1448 -0.1351 -0.00403 -0.2107 -0.1451 -0.1527 0.00669 0.00315
000050 ee 1d 68 1b 78 20 89 19 8c 20 1d 1c 2f b1 19 1d
       0.00579 0.003616 0.00873 0.002703 0.00888 0.004017 -0.162 0.00498
000060 3a 1c 12 b1 cc 12 54 a4 ef b0 c2 1e 4b a7 fc a6
       0.004128 -0.1584 0.0008297 -0.0169 -0.1542 0.0066 -0.02849 -0.02728
000070 ac 1a 9d 8f ca 95 e6 aa 10 9d 35 1c 7a 09 ad af
       0.003258 -0.0004647 -0.001413 -0.0539 -0.004944 0.00411 0.0001671 -0.11993
000080 48 ae 89 99 51 b0 76 9c c8 9d 41 af e2 1f d7 1e
       -0.09814 -0.002703 -0.1349 -0.004356 -0.005646 -0.11334 0.007698 0.00668
000090 d0 93 7a 9d 4e ae f4 ae e5 18 f6 90 d4 0e 79 b0
       -0.0009537 -0.00535 -0.0985 -0.10864 0.00239 -0.0006056 0.0004168 -0.1398
0000a0 77 ac 19 af 33 a1 a6 1e e6 82 c9 16 8b b0 f1 05
       -0.06976 -0.1109 -0.010155 0.006493 -4.42e-05 0.001657 -0.142 9.066e-05
0000b0 8a 21 ef 1d 15 1c 34 a4 d3 19 97 b0 36 a6 20 1e
       0.01082 0.005795 0.003986 -0.01642 0.002844 -0.1434 -0.02426 0.00598
0000c0 e4 af 27 1d 8f 9b 5e b0 93 b1 04 22 74 15 bc a5
       -0.1233 0.00503 -0.00369 -0.1365 -0.1742 0.01175 0.001331 -0.0224
0000d0 4f 19 10 96 b5 a7 8a a0 4f 1f e8 9a 60 b0 d4 20
       0.002592 -0.00148 -0.0301 -0.008865 0.007137 -0.003372 -0.1367 0.00943
0000e0 dc 99 8e af 8e b1 3d 09 3b 19 74 a3 2d 20 5e 8e
       -0.002861 -0.11804 -0.1736 0.0001599 0.002554 -0.01456 0.008156 -0.0003886
0000f0 f7 b0 66 a4 cb 9a a5 1d 6a 93 55 1b 11 ac 75 ae
       -0.1552 -0.01718 -0.003317 0.005512 -0.000905 0.00358 -0.06354 -0.1009

Mask-Encoder/conv-b1/instance_normalization_69/Reshape f2 [1, 1, 1, 128]
000000 06 37 c8 36 83 37 b8 36 fc 36 12 37 fb 36 6e 37
       0.439 0.4238 0.4695 0.42 0.4365 0.442 0.4363 0.4644
000010 2e 37 11 37 fa 36 19 37 22 37 c6 36 5c 37 36 37
       0.4487 0.4417 0.436 0.4436 0.4458 0.4233 0.46 0.4507
000020 22 37 3b 37 3d 37 53 37 88 36 4a 37 15 37 3b 37
       0.4458 0.452 0.4524 0.4578 0.4082 0.4556 0.4426 0.452
000030 2f 37 33 37 2a 37 37 37 8e 37 5f 37 0c 37 db 37
       0.449 0.45 0.4478 0.451 0.4722 0.4607 0.4404 0.491
000040 4c 37 0f 37 2b 37 c7 36 2a 37 b6 36 41 37 68 37
       0.456 0.4412 0.448 0.4236 0.4478 0.4194 0.4534 0.463
000050 39 37 47 37 5f 37 83 37 6d 37 f1 36 26 37 7a 37
       0.4514 0.4548 0.4607 0.4695 0.464 0.4338 0.4468 0.4673
000060 42 37 ed 36 57 37 f7 36 70 36 3e 37 4b 36 c6 35
       0.4536 0.4329 0.4587 0.4353 0.4023 0.4526 0.3933 0.3608
000070 32 37 5b 37 1c 37 2f 37 26 37 3d 37 43 37 4c 36
       0.4497 0.4597 0.4443 0.449 0.4468 0.4524 0.4539 0.3936
000080 4c 37 bc 37 ff 36 98 37 dc 37 a4 36 dd 36 7c 37
       0.456 0.4834 0.4373 0.4746 0.4912 0.415 0.429 0.4678
000090 c3 36 64 37 e0 36 b0 36 b3 37 db 36 13 37 c7 36
       0.4226 0.462 0.4297 0.418 0.4812 0.4285 0.4421 0.4236
0000a0 ea 35 fe 36 f5 36 dd 36 14 37 5d 37 92 36 b1 36
       0.3696 0.437 0.4348 0.429 0.4424 0.4602 0.4106 0.4182
0000b0 5c 37 3f 37 3c 37 6b 37 52 37 ba 36 28 37 aa 37
       0.46 0.453 0.4521 0.4636 0.4575 0.4204 0.4473 0.479
0000c0 1d 37 d2 36 21 37 00 37 ea 36 58 37 26 37 d0 35
       0.4446 0.4263 0.4456 0.4375 0.4321 0.459 0.4468 0.3633
0000d0 ed 36 64 37 41 36 c5 36 4c 37 6c 36 30 37 5b 37
       0.4329 0.462 0.3909 0.423 0.456 0.4014 0.4492 0.4597
0000e0 29 37 32 37 e9 36 54 37 ae 37 fd 37 0f 37 43 37
       0.4475 0.4497 0.432 0.458 0.48 0.4993 0.4412 0.4539
0000f0 f1 36 62 37 98 37 6a 37 8b 37 32 37 5d 37 1b 37
       0.4338 0.4614 0.4746 0.4634 0.4714 0.4497 0.4602 0.444

Mask-Encoder/conv-b2/instance_normalization_70/Reshape_1 f2 [1, 1, 1, 128]
000000 74 ac af ac 35 ad 9f ac 86 a5 87 9d bf 2b 5b ac
       -0.0696 -0.0732 -0.08136 -0.0722 -0.02158 -0.005398 0.06052 -0.06805
000010 13 ac 36 ac d5 aa 47 b0 91 aa 4f a9 1b ac df a7
       -0.06366 -0.0658 -0.05338 -0.1337 -0.0513 -0.04147 -0.06415 -0.03075
000020 01 ac 3f ab e8 a9 18 ac c5 ad e6 a8 e9 ac 48 ac
       -0.06256 -0.0566 -0.04614 -0.06396 -0.09015 -0.03827 -0.0767 -0.0669
000030 45 a2 a3 a3 d5 ac b9 a5 06 ae b1 a9 86 a1 5b ad
       -0.012245 -0.014915 -0.0755 -0.02235 -0.0941 -0.04446 -0.01079 -0.0837
000040 de a8 e8 ac 3b a9 05 ad 4d aa c6 a6 eb ac d6 ac
       -0.03802 -0.07666 -0.04086 -0.0784 -0.04922 -0.02646 -0.07684 -0.07556
000050 4c ad 73 ad cc ad 82 ab 2e ac 23 ae ac ac 85 ac
       -0.08276 -0.08514 -0.0906 -0.05865 -0.0653 -0.0959 -0.073 -0.0706
000060 73 ae ff ad 5a a6 9b aa 06 b0 0b 25 6b aa 2e ad
       -0.10077 -0.0937 -0.02481 -0.0516 -0.1257 0.0197 -0.05014 -0.08093
000070 84 ac ac af 21 ab 4d ac 89 ad 89 a9 a6 ac 5b a6
       -0.07056 -0.1199 -0.0557 -0.0672 -0.0865 -0.04324 -0.07263 -0.02483
000080 b8 ac 77 1a 9c ac bb ac a9 a9 16 ab 8a aa 47 ac
       -0.0737 0.003157 -0.072 -0.0739 -0.04422 -0.05536 -0.0511 -0.06683
000090 e4 a8 37 0c 33 ad cb ad 00 a1 cc ac b1 ac e2 ac
       -0.0382 0.0002573 -0.08124 -0.0905 -0.009766 -0.07495 -0.0733 -0.0763
0000a0 3d ae e4 aa 81 ad 5f ac 41 ac 48 99 c3 ad f5 ac
       -0.0975 -0.05383 -0.086 -0.0683 -0.06647 -0.002579 -0.09 -0.07745
0000b0 cf ac 89 a9 1d ac 2a ad 44 ac 28 ad be ad 7c ad
       -0.07513 -0.04324 -0.0643 -0.0807 -0.06665 -0.08057 -0.0897 -0.0857
0000c0 44 24 5b ac c4 af 81 aa dd a6 71 ad b1 af 90 aa
       0.01666 -0.06805 -0.12134 -0.0508 -0.02681 -0.085 -0.1202 -0.05127
0000d0 5a ad 2f ab e4 ad 4e ac d0 a9 a9 af 42 a9 0b ac
       -0.0836 -0.05612 -0.09204 -0.06726 -0.0454 -0.1197 -0.04108 -0.0632
0000e0 39 ac 35 a5 60 aa 50 ac 53 ad cf a8 3d ad ac ae
       -0.066 -0.02034 -0.0498 -0.0674 -0.0832 -0.03757 -0.08185 -0.10425
0000f0 e3 ad 57 ac b7 ae af aa 73 b0 7c 2a 29 ad b4 97
       -0.092 -0.0678 -0.1049 -0.05222 -0.139 0.05066 -0.0806 -0.001881

Mask-Encoder/conv-b2/instance_normalization_70/Reshape f2 [1, 1, 1, 128]
000000 2b 37 09 37 44 37 34 37 2c 37 5b 37 26 37 26 37
       0.448 0.4397 0.454 0.4502 0.4482 0.4597 0.4468 0.4468
000010 33 37 af 37 a1 37 80 36 ee 34 fd 36 63 37 8a 37
       0.45 0.4802 0.4768 0.4062 0.308 0.4368 0.4617 0.4712
000020 5d 37 9b 36 72 37 31 37 eb 35 71 37 f2 36 20 37
       0.4602 0.4128 0.4653 0.4495 0.3699 0.465 0.434 0.4453
000030 7e 37 66 37 c8 36 96 37 09 37 1d 37 d4 36 4f 37
       0.4683 0.4624 0.4238 0.474 0.4397 0.4446 0.4268 0.4568
000040 57 37 57 37 53 37 3a 37 60 37 0d 37 16 37 dc 36
       0.4587 0.4587 0.4578 0.4517 0.461 0.4407 0.4429 0.4287
000050 c5 36 06 37 43 37 09 37 6d 37 c4 36 2d 37 e9 36
       0.423 0.439 0.4539 0.4397 0.464 0.4229 0.4485 0.432
000060 d2 36 fc 36 47 37 35 37 02 37 90 36 fa 36 18 37
       0.4263 0.4365 0.4548 0.4504 0.438 0.4102 0.436 0.4434
000070 e4 36 20 37 a0 37 2d 37 1c 37 6d 37 20 37 29 37
       0.4307 0.4453 0.4766 0.4485 0.4443 0.464 0.4453 0.4475
000080 3b 37 07 37 fb 36 ee 36 8d 37 a9 37 57 37 99 36
       0.452 0.4392 0.4363 0.433 0.472 0.4788 0.4587 0.4124
000090 55 37 21 36 48 37 68 37 8a 35 1e 37 1c 37 93 37
       0.4583 0.383 0.455 0.463 0.3462 0.4448 0.4443 0.4734
0000a0 e4 36 c5 37 46 37 0d 36 d9 36 81 37 e8 36 e0 36
       0.4307 0.4856 0.4546 0.3782 0.428 0.469 0.4316 0.4297
0000b0 3f 37 20 36 2c 37 12 37 10 37 e5 36 b3 36 df 36
       0.453 0.3828 0.4482 0.442 0.4414 0.431 0.4187 0.4294
0000c0 35 37 8f 37 9e 36 a1 37 80 36 37 37 2a 37 c3 37
       0.4504 0.4724 0.4136 0.4768 0.4062 0.451 0.4478 0.485
0000d0 c7 36 84 37 cb 36 6e 37 e0 37 e5 36 f4 35 44 37
       0.4236 0.4697 0.4246 0.4644 0.4922 0.431 0.372 0.454
0000e0 6f 37 61 37 98 37 0c 37 af 37 97 37 c1 36 a1 36
       0.4646 0.4612 0.4746 0.4404 0.4802 0.4744 0.422 0.4143
0000f0 e8 36 d4 35 9d 36 67 37 9c 36 03 36 2f 37 eb 36
       0.4316 0.3643 0.4133 0.4626 0.413 0.3757 0.449 0.4324

Mask-Encoder/conv-b3/instance_normalization_71/Reshape_1 f2 [1, 1, 1, 256]
000000 c4 a6 77 ac 01 a9 0d ac 13 a8 a9 a8 60 ab 02 a8
       -0.02643 -0.06976 -0.0391 -0.0633 -0.03183 -0.0364 -0.05762 -0.0313
000010 e6 b1 38 a7 a4 b2 f9 ab 23 b1 d0 a2 bf a5 b9 a5
       -0.1843 -0.0282 -0.2075 -0.0623 -0.1605 -0.013306 -0.02245 -0.02235
000020 d4 ad 49 a6 63 a1 e8 a6 b1 a9 72 af 09 a2 a9 aa
       -0.09106 -0.02455 -0.01052 -0.02698 -0.04446 -0.11633 -0.01179 -0.05203
000030 f2 a8 8c ad 6f a7 9a a7 36 a5 b3 a2 c7 ac b1 a8
       -0.03864 -0.0867 -0.02904 -0.0297 -0.02036 -0.013084 -0.07465 -0.03665
000040 f9 ae 9e ab 3c 96 ce a8 10 ad 95 ad 99 b0 d2 a7
       -0.10895 -0.0595 -0.001522 -0.03754 -0.0791 -0.0872 -0.1437 -0.03055
000050 cb ab 12 a2 7c a6 64 ae 19 a4 b9 a8 9e 17 23 a0
       -0.06088 -0.011856 -0.02533 -0.09985 -0.016 -0.0369 0.00186 -0.00808
000060 db ac 77 9f 54 ab 88 a3 72 a5 2f b1 78 a4 09 a9
       -0.07587 -0.00729 -0.05725 -0.01471 -0.02127 -0.162 -0.01746 -0.03934
000070 5d ad 6a a3 93 b1 55 a9 ba aa 8b ac 08 ad bd 9e
       -0.0838 -0.01448 -0.1742 -0.04166 -0.05255 -0.071 -0.0786 -0.00658
000080 93 a4 65 a5 a5 a7 dc a9 a0 ae 2c a8 b5 aa 9c a9
       -0.01787 -0.02107 -0.02986 -0.04578 -0.1035 -0.0326 -0.0524 -0.04382
000090 20 a6 32 a4 a7 ad cc a8 59 ac fc a4 85 a4 4f aa
       -0.02393 -0.01639 -0.0883 -0.03748 -0.06793 -0.01947 -0.01765 -0.0493
0000a0 35 a4 ae a0 05 ae 87 a4 ce a7 a2 1a 81 a9 d3 b1
       -0.01643 -0.00914 -0.09406 -0.01768 -0.03049 0.003239 -0.043 -0.182
0000b0 1c a6 ed a6 bc ad eb ae a9 a2 d6 a4 4a a3 b1 a8
       -0.02386 -0.02705 -0.0896 -0.1081 -0.01301 -0.01889 -0.01424 -0.03665
0000c0 08 a4 17 b1 14 a6 d2 ad 74 ae 5f a9 8c ac 6c a7
       -0.01575 -0.159 -0.02374 -0.09094 -0.1008 -0.04196 -0.07104 -0.02899
0000d0 5b a2 78 af 1d a6 9b ab 41 a2 95 aa 77 a5 58 ac
       -0.01241 -0.1167 -0.02388 -0.05942 -0.012215 -0.05142 -0.02135 -0.0679
0000e0 f3 a2 d6 a6 67 a9 d0 a4 f3 a0 3a a0 c4 aa a4 a9
       -0.01357 -0.0267 -0.0422 -0.0188 -0.00967 -0.008255 -0.05286 -0.04407
0000f0 50 a8 7c a5 2d a2 e0 a5 6a ac 9b a6 82 a8 93 af
       -0.0337 -0.02142 -0.01206 -0.02295 -0.069 -0.0258 -0.03522 -0.11835
000100 ce a8 2d a7 61 ac 38 ae 66 ab 04 a4 89 a2 03 a4
       -0.03754 -0.02803 -0.0684 -0.09717 -0.0578 -0.01569 -0.012764 -0.01567
000110 a9 a6 48 a4 50 b1 b6 ac 86 a9 c5 a4 73 a4 86 a7
       -0.02602 -0.01672 -0.166 -0.0736 -0.04315 -0.01863 -0.01738 -0.02939
000120 e5 b1 83 9e 4c a9 9d ad e6 ab 94 b1 12 a8 b1 ac
       -0.1842 -0.00636 -0.04138 -0.0877 -0.0617 -0.1743 -0.0318 -0.0733
000130 c9 ae 20 ad de af eb aa 61 a1 6d aa 37 9c 06 ae
       -0.106 -0.0801 -0.1229 -0.05405 -0.010506 -0.0502 -0.004116 -0.0941
000140 e9 ab 5f a7 8b ab 95 a4 0f ae 4b a6 1c a7 e0 a9
       -0.0618 -0.0288 -0.05893 -0.0179 -0.09467 -0.02458 -0.02777 -0.0459
000150 e2 b0 09 ab 49 a3 59 b1 3f a8 dd a8 bd b0 26 a5
       -0.1526 -0.05496 -0.01423 -0.1671 -0.03317 -0.038 -0.1481 -0.02011
000160 d9 a4 10 a6 dd a4 bb ac d7 a9 d3 ae b5 aa b0 ac
       -0.01894 -0.02368 -0.019 -0.0739 -0.04562 -0.1066 -0.0524 -0.07324
000170 a5 a8 a0 a6 f1 9f 5a ab 45 ad 41 a7 18 a4 e4 9d
       -0.0363 -0.02588 -0.007755 -0.05743 -0.08234 -0.02834 -0.01599 -0.005753
000180 47 ae 08 a5 f0 a4 ac ac 66 a8 71 af 24 ac de ac
       -0.0981 -0.01965 -0.01929 -0.073 -0.03436 -0.1163 -0.0647 -0.07605
000190 fe a5 dd 9f c8 a8 80 a4 4e a6 ad a4 24 ab a2 a4
       -0.0234 -0.00768 -0.03735 -0.01758 -0.02463 -0.01826 -0.0558 -0.0181
0001a0 ce a8 73 a8 eb ac ad a8 93 a8 b8 ab 6f ac 43 ad
       -0.03754 -0.03476 -0.07684 -0.03653 -0.03574 -0.0603 -0.0693 -0.0822
0001b0 b6 a4 0c ab 62 9e ed a2 11 ab a6 aa 1c a4 cf a7
       -0.0184 -0.05505 -0.006233 -0.01353 -0.0552 -0.05194 -0.01605 -0.0305
0001c0 c3 a9 3b aa b0 a9 8d aa 18 a9 d3 a4 41 a3 3a a2
       -0.045 -0.04868 -0.04443 -0.05118 -0.0398 -0.01884 -0.01417 -0.01216
0001d0 5a a6 4f 95 95 a5 68 9e 18 af 8a ad 2e 9e 7d a4
       -0.02481 -0.001296 -0.0218 -0.006256 -0.11084 -0.08655 -0.006035 -0.01753
0001e0 d2 ad d0 a9 81 a8 e6 a5 a1 a9 d8 a8 1c a6 73 a6
       -0.09094 -0.0454 -0.0352 -0.02304 -0.04398 -0.03784 -0.02386 -0.02519
0001f0 9b b0 a5 a5 34 a3 3b 18 34 a0 35 aa 6e ab e1 9c
       -0.1439 -0.02205 -0.01407 0.002066 -0.00821 -0.0485 -0.05804 -0.004765

Mask-Encoder/conv-b3/instance_normalization_71/Reshape f2 [1, 1, 1, 256]
000000 90 36 ba 37 47 37 b6 34 70 36 63 36 a6 36 00 37
       0.4102 0.483 0.4548 0.2944 0.4023 0.3992 0.4155 0.4375
000010 06 34 81 36 2f 36 9c 36 f2 35 e5 35 f6 36 4a 37
       0.2515 0.4065 0.3865 0.413 0.3716 0.3684 0.435 0.4556
000020 db 36 68 36 cc 36 21 37 f2 36 b0 36 5a 36 fc 36
       0.4285 0.4004 0.4248 0.4456 0.434 0.418 0.397 0.4365
000030 bb 36 d5 36 b6 36 08 37 bf 34 2a 36 f9 36 32 36
       0.4207 0.427 0.4194 0.4395 0.2966 0.3853 0.4358 0.3872
000040 f9 34 02 38 b3 36 09 36 05 37 d8 36 cc 35 41 36
       0.3108 0.501 0.4187 0.3772 0.4387 0.4277 0.3623 0.3909
000050 d4 35 23 37 ba 36 52 36 53 36 4e 36 bf 37 e0 36
       0.3643 0.446 0.4204 0.395 0.3953 0.394 0.4841 0.4297
000060 aa 36 9c 37 1a 37 40 37 1e 37 df 36 a4 36 67 37
       0.4165 0.4756 0.4438 0.4531 0.4448 0.4294 0.415 0.4626
000070 a6 34 ab 36 ef 36 5b 37 fd 36 b1 36 49 37 e4 36
       0.2905 0.4167 0.4333 0.4597 0.4368 0.4182 0.4553 0.4307
000080 9c 36 22 36 81 36 df 36 f6 36 17 36 cb 36 47 36
       0.413 0.3833 0.4065 0.4294 0.435 0.3806 0.4246 0.3923
000090 1d 35 87 37 46 35 93 36 8b 35 bd 36 58 37 0f 37
       0.3196 0.4705 0.3296 0.411 0.3464 0.4211 0.459 0.4412
0000a0 e5 36 c2 36 1e 37 db 36 32 37 06 37 1b 37 dd 36
       0.431 0.4224 0.4448 0.4285 0.4497 0.439 0.444 0.429
0000b0 a7 36 80 36 c9 36 05 36 c2 36 c5 36 c9 36 0c 36
       0.4158 0.4062 0.424 0.3762 0.4224 0.423 0.424 0.378
0000c0 4b 37 21 37 4a 36 86 36 2d 37 3d 37 36 37 ef 36
       0.4558 0.4456 0.393 0.4077 0.4485 0.4524 0.4507 0.4333
0000d0 69 36 02 37 18 35 d1 36 3c 36 10 36 69 36 4b 37
       0.4006 0.438 0.3184 0.426 0.3896 0.379 0.4006 0.4558
0000e0 c6 35 f7 36 5f 35 cc 36 db 36 c6 36 68 37 60 36
       0.3608 0.4353 0.3357 0.4248 0.4285 0.4233 0.463 0.3984
0000f0 64 35 98 35 61 37 61 36 1c 37 3c 37 69 35 d5 34
       0.337 0.3496 0.4612 0.3987 0.4443 0.4521 0.3381 0.302
000100 11 37 9e 36 22 35 b3 35 bb 36 d4 36 be 36 b4 36
       0.4417 0.4136 0.3208 0.3562 0.4207 0.4268 0.4214 0.419
000110 65 36 dc 36 19 37 b1 35 9c 36 de 35 69 36 a0 36
       0.3997 0.4287 0.4436 0.3557 0.413 0.3667 0.4006 0.414
000120 47 36 84 36 16 36 46 36 ed 36 d9 35 f3 35 4f 36
       0.3923 0.4072 0.3804 0.392 0.4329 0.3655 0.3718 0.3943
000130 ff 36 c9 36 79 35 16 33 e5 36 7a 36 74 36 3c 37
       0.4373 0.424 0.342 0.2214 0.431 0.4048 0.4033 0.4521
000140 02 37 81 36 d3 35 0c 37 1f 37 64 37 58 36 a0 36
       0.438 0.4065 0.364 0.4404 0.445 0.462 0.3965 0.414
000150 0c 36 85 36 b3 36 89 37 df 36 50 36 12 35 a5 36
       0.378 0.4075 0.4187 0.471 0.4294 0.3945 0.317 0.4153
000160 21 37 b1 36 b4 35 d3 34 83 36 01 35 01 37 d5 37
       0.4456 0.4182 0.3564 0.3015 0.407 0.3127 0.4377 0.4895
000170 d0 36 6b 37 45 37 15 38 f9 35 a7 36 ba 35 cc 36
       0.4258 0.4636 0.4543 0.5103 0.3733 0.4158 0.358 0.4248
000180 36 37 f5 36 89 36 34 37 b2 37 69 36 c9 34 24 37
       0.4507 0.4348 0.4084 0.4502 0.481 0.4006 0.299 0.4463
000190 44 37 be 36 70 36 4a 36 1d 37 53 36 4a 37 32 35
       0.454 0.4214 0.4023 0.393 0.4446 0.3953 0.4556 0.3247
0001a0 70 36 46 37 47 37 f6 36 f4 36 17 37 e5 36 e0 34
       0.4023 0.4546 0.4548 0.435 0.4346 0.443 0.431 0.3047
0001b0 18 37 b2 36 e0 36 c4 36 b3 35 59 36 8d 36 29 36
       0.4434 0.4185 0.4297 0.4229 0.3562 0.3967 0.4094 0.385
0001c0 00 37 54 35 ae 36 22 37 04 37 6d 37 cf 36 d3 36
       0.4375 0.333 0.4175 0.4458 0.4385 0.464 0.4255 0.4265
0001d0 b4 36 fa 36 d3 36 7e 37 a4 37 e3 36 e1 36 88 36
       0.419 0.436 0.4265 0.4683 0.4775 0.4304 0.43 0.4082
0001e0 53 36 34 36 8d 36 94 36 1e 37 6d 37 b9 36 78 36
       0.3953 0.3877 0.4094 0.4111 0.4448 0.464 0.4202 0.4043
0001f0 13 37 25 37 03 37 d5 36 d6 36 fa 34 16 35 e7 36
       0.4421 0.4465 0.4382 0.427 0.4272 0.311 0.3179 0.4314

Mask-Encoder/z/MatMul f2 [2, 5120]
000000 f1 ab 1e a1 ca 07 61 13 2d 29 2e 25 27 ac a7 26
       -0.06204 -0.009995 0.00011885 0.0009007 0.04044 0.02023 -0.0649 0.02599
000010 56 a4 7b a7 41 21 80 28 e6 22 99 21 59 a6 24 8c
       -0.01694 -0.02922 0.01026 0.03516 0.01347 0.01093 -0.0248 -0.0002527
000020 04 25 04 a8 e0 13 a1 a8 06 a0 6d 23 65 20 9e 9d
       0.01959 -0.03137 0.0009613 -0.03616 -0.00786 0.0145 0.00858 -0.005486
000030 4a 9c 01 25 75 a6 fc 24 e4 1c 10 20 8e a8 14 23
       -0.00419 0.01955 -0.02522 0.01947 0.004776 0.007935 -0.03558 0.013824
000040 86 a4 61 9d 18 a8 3b a6 52 26 ef a2 a7 a4 66 27
       -0.01767 -0.005253 -0.03198 -0.02434 0.02469 -0.01354 -0.01817 0.0289
000050 f3 a8 47 a8 70 93 00 a0 5b 28 e8 9e 78 9d 3f a7
       -0.03867 -0.03342 -0.000908 -0.007812 0.03403 -0.006744 -0.00534 -0.0283
000060 a0 21 d9 a6 9b 21 32 26 71 23 36 9b f1 24 88 1f
       0.01099 -0.02675 0.01095 0.0242 0.014534 -0.003521 0.0193 0.007355
000070 b7 26 a0 21 80 25 bd 23 e6 20 cc 15 75 26 fc a5
       0.02623 0.01099 0.02148 0.015114 0.00957 0.001415 0.02522 -0.02338
000080 02 a4 96 a0 6e 9e 6d 10 36 20 19 a4 c2 26 c7 09
       -0.01566 -0.00896 -0.00628 0.0005403 0.008224 -0.016 0.0264 0.0001763
000090 04 21 18 25 e4 24 62 19 e7 9d 90 a5 09 93 87 a0
       0.009796 0.0199 0.0191 0.002628 -0.005764 -0.02173 -0.000859 -0.00884
0000a0 f3 a7 eb 25 06 22 35 a7 ad a8 1d a8 d3 27 9e a5
       -0.03105 0.02312 0.011765 -0.02815 -0.03653 -0.03214 0.03056 -0.02194
0000b0 14 23 70 23 59 1f a8 a5 1e ab cd 14 9b 19 56 24
       0.013824 0.01453 0.007175 -0.0221 -0.0556 0.001172 0.002737 0.01694
0000c0 01 b0 4b 26 44 26 fe 1c 1e a7 6d 0f d1 a8 2b 28
       -0.1251 0.02458 0.02448 0.004875 -0.0278 0.0004532 -0.03763 0.03256
0000d0 c2 26 e8 24 3d 22 73 26 98 24 c6 a5 04 a2 ff 26
       0.0264 0.01917 0.012184 0.02519 0.01794 -0.02255 -0.01175 0.02733
0000e0 4b 26 83 22 c5 a8 ff ab 92 1c 38 a5 3a 27 53 1a
       0.02458 0.01272 -0.03726 -0.06247 0.004463 -0.02039 0.02823 0.003088
0000f0 c2 22 cf 24 eb 1f 56 21 d5 a8 db a4 51 21 be a8
       0.0132 0.01878 0.007732 0.01042 -0.03775 -0.01897 0.01038 -0.03705
000100 60 27 7f a8 92 a6 f6 a6 88 a5 ab 20 ee a5 61 a3
       0.02881 -0.03513 -0.02567 -0.02719 -0.0216 0.00912 -0.02316 -0.01441
000110 3f 21 c4 a6 66 9c f5 14 2c a4 ea 98 48 a7 5b a4
       0.01025 -0.02643 -0.004295 0.00121 -0.0163 -0.0024 -0.02844 -0.01701
000120 29 14 ff a6 67 25 bc a0 33 26 6d 9f 3c 20 5c 1f
       0.001016 -0.02733 0.0211 -0.00925 0.02422 -0.00725 0.00827 0.007187
000130 0b 22 c0 9c a0 29 ea a3 58 23 83 a2 97 9c a8 26
       0.0118 -0.00464 0.04395 -0.01546 0.01434 -0.01272 -0.004482 0.026
000140 45 21 8f ab 54 29 86 9f b6 1e 99 24 7b 26 45 22
       0.01029 -0.05905 0.04163 -0.007347 0.006554 0.01796 0.02531 0.012245
000150 69 20 2a 25 0e a3 b9 a3 ac 20 a5 9f fb 9e e1 22
       0.00861 0.02017 -0.01378 -0.01508 0.009125 -0.007465 -0.006817 0.013435
000160 b2 99 e4 a8 cf a4 fc 1c 1c a1 fb 27 20 24 af 24
       -0.00278 -0.0382 -0.01878 0.004868 -0.00998 0.03117 0.01611 0.0183
000170 ce 21 cf a8 36 22 26 25 a0 24 ca 20 12 a9 fc a3
       0.01134 -0.03757 0.01213 0.02011 0.01807 0.00935 -0.0396 -0.015594
000180 a4 9e 3d a0 64 aa 5a 25 20 9f b9 25 d9 a8 10 aa
       -0.006485 -0.00828 -0.04993 0.0209 -0.006958 0.02235 -0.03787 -0.04736
000190 c3 a4 33 aa d5 26 43 1e 4f a3 cc a5 11 9f 09 a2
       -0.0186 -0.04843 0.02669 0.006115 -0.014275 -0.02264 -0.0069 -0.01179
0001a0 b4 a4 66 1d e9 25 8f 22 ce 22 99 a6 31 96 19 a8
       -0.01837 0.005272 0.02309 0.01281 0.01329 -0.02577 -0.001512 -0.032
0001b0 21 24 5b a4 16 a1 4a a3 a8 26 9a 21 74 24 38 a3
       0.01613 -0.01701 -0.00993 -0.01424 0.026 0.01094 0.0174 -0.0141
0001c0 3d 9f 5b 21 07 29 25 24 1a 26 3a 28 0c ab 0b a4
       -0.00707 0.01046 0.03928 0.01619 0.02383 0.03302 -0.05505 -0.0158
0001d0 14 a0 10 a2 db 1c 62 a6 9d 21 22 9d 6f 9d 4b a9
       -0.007965 -0.01184 0.00474 -0.02493 0.01096 -0.005013 -0.005306 -0.04135
0001e0 47 28 01 1c 94 a4 55 9d de a6 e1 a0 74 90 37 a0
       0.03342 0.00391 -0.01788 -0.005207 -0.02682 -0.00953 -0.0005436 -0.00823
0001f0 2b 24 88 9a 52 a8 e9 a4 59 9e 3e aa fd 25 93 a1
       0.01628 -0.00319 -0.03375 -0.01918 -0.0062 -0.04877 0.02339 -0.01089

Mask-Encoder/conv-b0/conv2d_78/Conv2D f2 [64, 3, 3, 1]
000000 03 a2 f8 33 16 ac 70 b1 73 b1 85 b0 79 b4 6f b5
       -0.01174 0.249 -0.06384 -0.1699 -0.1703 -0.1412 -0.2795 -0.3396
000010 b1 a9 3a b3 9c 34 de b5 6a 99 18 33 3f 34 b8 1b
       -0.04446 -0.2258 0.288 -0.3667 -0.002644 0.2217 0.2654 0.003769
000020 b4 32 ac b5 5e 30 6a b5 79 34 bd b1 c9 b2 79 34
       0.2095 -0.3545 0.1365 -0.3384 0.2795 -0.1793 -0.212 0.2795
000030 d5 b3 7a 34 e1 b4 ee a8 14 30 dd 33 bc b5 fc b1
       -0.2448 0.2798 -0.305 -0.0385 0.1274 0.2457 -0.3584 -0.187
000040 84 b5 57 b5 dc af 38 ac 10 b3 a7 b4 ca b0 8e 35
       -0.3447 -0.3337 -0.1228 -0.0659 -0.2207 -0.2908 -0.1497 0.3472
000050 47 b0 2c b4 2a b3 e6 ae 3c 2d d6 b4 1e b4 37 b4
       -0.1337 -0.2607 -0.2239 -0.1078 0.0818 -0.3022 -0.2573 -0.2634
000060 39 b4 d0 31 67 b2 08 34 04 b3 be b5 07 33 bc ac
       -0.264 0.1816 -0.2001 0.252 -0.2192 -0.359 0.2196 -0.074
000070 77 ac 1b 36 6d b1 43 9a 1c 19 bc b0 52 b6 ca b4
       -0.06976 0.3816 -0.1696 -0.003057 0.002495 -0.148 -0.395 -0.2993
000080 1b 35 c6 31 a9 2c 53 a6 9e b4 c3 b6 46 97 01 9b
       0.319 0.1804 0.0728 -0.0247 -0.2886 -0.4226 -0.001776 -0.00342
000090 f4 b2 c0 32 75 b4 64 b4 7b aa 43 b6 c5 34 93 b2
       -0.2173 0.2109 -0.2786 -0.2744 -0.05063 -0.3914 0.298 -0.2054
0000a0 b9 b1 0a b5 88 32 7a 32 fb ac b2 31 a9 b5 d9 95
       -0.1788 -0.315 0.2041 0.2024 -0.0778 0.178 -0.3538 -0.001428
0000b0 ed b0 fb 30 73 2f 9e 2c a9 b1 55 2d 4a 37 13 a8
       -0.1539 0.1556 0.1164 0.07214 -0.1769 0.0833 0.4556 -0.03183
0000c0 0f 2d 62 9e 65 9e 60 31 8a ae f6 b0 64 ac 4f b6
       0.07904 -0.006233 -0.006245 0.168 -0.1022 -0.155 -0.0686 -0.3943
0000d0 3a b4 d2 b5 62 33 7c b3 79 b5 ad ae 51 33 5b 31
       -0.2642 -0.3638 0.2307 -0.2339 -0.342 -0.1043 0.2286 0.1674
0000e0 d3 b1 39 b1 7e b5 27 b3 80 a9 21 2f e5 2e f4 32
       -0.182 -0.1632 -0.3433 -0.2235 -0.04297 0.1114 0.1077 0.2173
0000f0 04 2e 54 2e 4e b1 2b b1 a4 b6 d2 32 a8 21 e1 ac
       0.094 0.0989 -0.1658 -0.1615 -0.415 0.2131 0.01105 -0.07623
000100 e2 ab f1 b5 ab 36 26 b3 0f 30 58 31 14 31 ff b4
       -0.06158 -0.3713 0.4167 -0.2234 0.1268 0.167 0.1587 -0.3123
000110 91 ad 25 b6 7f 30 d7 ab 17 b3 24 b4 2a 34 43 b4
       -0.087 -0.384 0.1405 -0.06125 -0.2216 -0.2588 0.2603 -0.2664
000120 9a 1e d5 2b 58 25 47 2c 06 b4 a4 b4 23 9d f0 32
       0.006447 0.0612 0.02087 0.06683 -0.2515 -0.29 -0.005016 0.2168
000130 17 b4 ce b1 1e b4 dc 2f d1 ac 00 b0 4e ad 06 af
       -0.2556 -0.1814 -0.2573 0.1228 -0.07526 -0.125 -0.0829 -0.10974
000140 b8 b0 8d 22 33 2c c3 b4 9f 34 1f b4 60 34 ae 2b
       -0.1475 0.012794 0.0656 -0.2976 0.2888 -0.2576 0.2734 0.06
000150 79 30 7f b4 34 a9 1d b5 0f b2 1c 34 db ac 8d b1
       0.1398 -0.281 -0.04065 -0.3196 -0.1893 0.2568 -0.07587 -0.1735
000160 0d 34 03 b7 2f 34 1f 34 34 2c 4d 31 e5 0f 43 2a
       0.2532 -0.4382 0.2615 0.2576 0.0657 0.1656 0.0004818 0.04892
000170 72 37 29 b5 a9 b3 84 aa fa 30 57 aa 2a 33 68 b1
       0.4653 -0.3225 -0.2394 -0.0509 0.1555 -0.04953 0.2239 -0.169
000180 25 b4 ab b2 23 35 ea 2d 69 b5 24 35 19 2f 3e b6
       -0.259 -0.2084 0.321 0.0924 -0.3381 0.3213 0.1109 -0.3901
000190 a4 2f 27 2f 9c b0 21 30 4e 35 7c b3 2e 30 30 b5
       0.1194 0.11176 -0.144 0.129 0.3315 -0.2339 0.1306 -0.3242
0001a0 a1 b5 4e 33 c6 a8 81 36 2b 32 48 32 8a b6 97 b4
       -0.3518 0.2283 -0.0373 0.4065 0.1927 0.1963 -0.4087 -0.2869
0001b0 b0 b1 45 ae 1e 1c 74 af df b4 89 b3 6c b2 da 33
       -0.1777 -0.09796 0.00402 -0.11646 -0.3044 -0.2355 -0.2007 0.2454
0001c0 3a b4 f8 a4 09 a5 0f 20 f9 36 f9 b0 b5 2e e7 b2
       -0.2642 -0.01941 -0.01967 0.00793 0.4358 -0.1554 0.1048 -0.2157
0001d0 33 99 22 9a a4 b1 cd 34 dc b0 8c 34 d3 2f ef 2f
       -0.002539 -0.002995 -0.1763 0.3 -0.1519 0.2842 0.12225 0.12396
0001e0 06 b6 55 23 47 2f a9 2d b9 b0 ac 2d 8a b7 bd 2d
       -0.3765 0.01432 0.1137 0.08844 -0.1476 0.0886 -0.4712 0.08966
0001f0 2f a8 fb 34 d9 34 e9 34 bc ad a2 b3 75 98 41 9a
       -0.03268 0.3113 0.303 0.307 -0.0896 -0.2385 -0.002176 -0.003054

Mask-Encoder/conv-b0/conv2d_78/BiasAdd;Mask-Encoder/conv-b0/conv2d_78/Conv2D;conv-b0/conv2d_78/bias f2 [64]
000000 1d 27 96 a5 a1 a7 99 a8 ce 28 59 1e 64 23 76 24
       0.02779 -0.02182 -0.0298 -0.03592 0.03754 0.0062 0.014435 0.01743
000010 cc a5 81 a2 86 15 25 aa 79 25 08 9c 73 22 51 2a
       -0.02264 -0.0127 0.0013485 -0.048 0.02138 -0.003937 0.012596 0.04935
000020 1a a7 34 ad 70 25 47 10 b9 21 24 26 67 00 a4 a1
       -0.02774 -0.0813 0.02124 0.000522 0.01118 0.02399 6.14e-06 -0.01102
000030 29 99 2c 29 4f 90 4c a1 21 a1 73 a5 79 26 b3 28
       -0.00252 0.0404 -0.000526 -0.010345 -0.01002 -0.02129 0.02528 0.0367
000040 ad ad 11 a7 19 ac a1 25 7e a5 24 94 2e 2a 55 a2
       -0.0887 -0.0276 -0.064 0.02199 -0.02145 -0.001011 0.04828 -0.01237
000050 5f 21 16 25 a8 25 27 a0 bb 25 5c a5 3a 24 81 99
       0.01049 0.01987 0.0221 -0.00811 0.02238 -0.02094 0.01651 -0.002687
000060 13 14 cc 19 8d 25 68 ae 4e 21 a0 25 45 9f 7d 25
       0.000995 0.00283 0.02168 -0.1001 0.01036 0.02197 -0.0071 0.02144
000070 32 aa 5c 29 1e ac 36 9d 8c 25 c6 25 b8 aa c3 9a
       -0.0484 0.04187 -0.06433 -0.00509 0.02167 0.02255 -0.0525 -0.003302
