weights/tf-lite/codvae/mask_encoder_quant_f16.tflite (tflite, 558516 bytes, 17 tensors)

conv-b3/conv2d_36/kernel f2 [3, 3, 64, 256]
0	0x2c5f	0.0683
1	0x2435	0.01643
2	0x9f01	-0.00684
3	0x2349	0.01423
4	0x2453	0.01689
5	0x99b8	-0.002792
6	0x2839	0.033
7	0xa978	-0.04272
8	0x9f4f	-0.007137
9	0x1fa4	0.00746
10	0x1a85	0.003183
11	0xaa71	-0.05032
12	0x1d58	0.00522
13	0xa695	-0.02571
14	0xad34	-0.0813
15	0x243c	0.01654
16	0xa43a	-0.01651
17	0x0e57	0.000387
18	0xa061	-0.00855
19	0x1cfc	0.004868
20	0x2632	0.0242
21	0x2644	0.02448
22	0x2b31	0.05618
23	0xa0ad	-0.00913
24	0x1cde	0.004753
25	0x27fc	0.03119
26	0xa38a	-0.014725
27	0xa54b	-0.02068
28	0xa0c7	-0.00933
29	0xa928	-0.04028
30	0x2054	0.00845
31	0xa43a	-0.01651
32	0xa6f6	-0.02719
33	0xa04e	-0.00841
34	0x24cd	0.01875
35	0xa944	-0.04114
36	0xa7ef	-0.03099
37	0xad10	-0.0791
38	0xa47f	-0.01756
39	0x2727	0.02794
40	0x1f53	0.007153
41	0xaa8c	-0.05115
42	0x2502	0.01956
43	0xa140	-0.010254
44	0x2a39	0.0486
45	0xaae2	-0.05377
46	0x25b2	0.02225
47	0x2d21	0.08014
48	0x2051	0.00843
49	0xa8be	-0.03705
50	0xa68b	-0.02556
51	0xa45a	-0.017
52	0x151c	0.001247
53	0x285a	0.034
54	0xa7ee	-0.03098
55	0x1de9	0.00577
56	0x279f	0.02977
57	0x2349	0.01423
58	0x1998	0.002731
59	0xa410	-0.01587
60	0xa4f2	-0.01932
61	0xa222	-0.01198
62	0xa067	-0.0086
63	0xa5f5	-0.02327
64	0xa604	-0.0235
65	0xaac0	-0.05273
66	0x9924	-0.00251
67	0x2956	0.0417
68	0x1bf4	0.003883
69	0x9d8e	-0.005424
70	0xa7e2	-0.03079
71	0x9f84	-0.00734
72	0x2d01	0.0782
73	0xa62c	-0.02411
74	0x2518	0.0199
75	0xa310	-0.013794
76	0xa242	-0.01222
77	0xa938	-0.04077
78	0xa07b	-0.00875
79	0x1d6d	0.0053
80	0xa4e5	-0.01912
81	0x1cec	0.004807
82	0xabca	-0.06085
83	0xa1ff	-0.01171
84	0x9c6c	-0.00432
85	0xa0fa	-0.00972
86	0xaa8b	-0.05112
87	0x2cda	0.0758
88	0x8fed	-0.0004838
89	0x2455	0.01692
90	0x29e0	0.0459
91	0x268f	0.02562
92	0xa4b5	-0.01839
93	0xa263	-0.012474
94	0xaa98	-0.0515
95	0xa8b9	-0.0369
96	0x9c05	-0.003925
97	0xa0c2	-0.00929
98	0x9374	-0.00091
99	0xaa53	-0.0494
100	0xa82b	-0.03256
101	0xa018	-0.007996
102	0x2447	0.01671
103	0x2108	0.00983
104	0x28b9	0.0369
105	0xa893	-0.03574
106	0x233c	0.01413
107	0x26fe	0.02731
108	0xa47d	-0.01753
109	0x2769	0.02895
110	0xa4c9	-0.01869
111	0x243c	0.01654
112	0xa634	-0.02423
113	0x1fca	0.007607
114	0x9eae	-0.006523
115	0x1f74	0.00728
116	0x1cd0	0.0047
117	0x9db9	-0.00559
118	0xa36c	-0.014496
119	0x240c	0.01581
120	0xa85d	-0.0341
121	0xa66e	-0.02512
122	0x2a0e	0.0473
123	0x26ca	0.02652
124	0x26fc	0.02728
125	0x1f4f	0.007137
126	0xabb1	-0.0601
127	0xa269	-0.01252
128	0xa8ea	-0.0384
129	0xa610	-0.02368
130	0xa5a6	-0.02206
131	0xa2aa	-0.013016
132	0x1883	0.002203
133	0x2574	0.0213
134	0x251b	0.01994
135	0x265e	0.02487
136	0xa333	-0.01406
137	0x9ce9	-0.004795
138	0xa533	-0.02031
139	0x1c12	0.003975
140	0x1df7	0.005825
141	0xa993	-0.04355
142	0xa87f	-0.03513
143	0x2558	0.02087
144	0x275b	0.02873
145	0xa9ce	-0.04535
146	0x9c37	-0.004116
147	0x9ea5	-0.00649
148	0xa7f2	-0.03104
149	0xa937	-0.04074
150	0xa2e4	-0.01346
151	0x2654	0.02472
152	0x9cdd	-0.00475
153	0x1a1a	0.00298
154	0xaaea	-0.05402
155	0x28b7	0.03683
156	0x2ad4	0.05334
157	0xa1af	-0.0111
158	0x230a	0.01375
159	0xae54	-0.0989
160	0x26fe	0.02731
161	0x207e	0.00877
162	0x9f51	-0.007145
163	0xa3c1	-0.015144
164	0xa416	-0.01596
165	0xa1a0	-0.01099
166	0x1a0d	0.002954
167	0x2434	0.01642
168	0xa7e2	-0.03079
169	0x23c1	0.015144
170	0xa087	-0.00884
171	0x2a19	0.04764
172	0x24c6	0.01865
173	0xa87f	-0.03513
174	0x9a6d	-0.003138
175	0x1e19	0.005955
176	0x9dd2	-0.005684
177	0xa42b	-0.01628
178	0xa408	-0.01575
179	0xa821	-0.03226
180	0xad5b	-0.0837
181	0xa134	-0.01016
182	0xa8f7	-0.0388
183	0xa31b	-0.01388
184	0x26ef	0.02708
185	0x29a8	0.0442
186	0x29d9	0.0457
187	0xa9c9	-0.0452
188	0xadb2	-0.089
189	0xa335	-0.01408
190	0xaac0	-0.05273
191	0xa98c	-0.04333
192	0x2699	0.02577
193	0xa89c	-0.036
194	0x2314	0.013824
195	0x298c	0.04333
196	0x9de6	-0.00576
197	0xab84	-0.05872
198	0xa5f1	-0.02321
199	0xaa62	-0.04987
200	0xa80a	-0.03156
201	0x2c24	0.0647
202	0xac73	-0.0695
203	0x2723	0.02788
204	0x2a3f	0.0488
205	0x2a4e	0.04926
206	0xa923	-0.04013
207	0x2428	0.01624
208	0xa895	-0.0358
209	0xa919	-0.03983
210	0xa81d	-0.03214
211	0xab5e	-0.05756
212	0x25d0	0.0227
213	0xa675	-0.02522
214	0xa844	-0.03333
215	0xa92d	-0.04044
216	0x28c8	0.03735
217	0x2a6e	0.05023
218	0x2301	0.01368
219	0xa8aa	-0.03644
220	0xa169	-0.01057
221	0xa364	-0.014435
222	0x1a0a	0.002949
223	0xa021	-0.008064
224	0x1d5a	0.005226
225	0xa819	-0.032
226	0xa5dc	-0.02289
227	0x2480	0.01758
228	0xa223	-0.011986
229	0x9ece	-0.006645
230	0xa981	-0.043
231	0x2882	0.03522
232	0xaa76	-0.05048
233	0x254c	0.02069
234	0xa066	-0.00859
235	0x225f	0.01244
236	0x24af	0.0183
237	0xa40b	-0.0158
238	0xa755	-0.02864
239	0xaade	-0.05365
240	0xa233	-0.01211
241	0xaba9	-0.05984
242	0x25c5	0.02254
243	0x21cb	0.011314
244	0x24b6	0.0184
245	0x2a99	0.05154
246	0x2367	0.01446
247	0x22a7	0.01299
248	0x9efc	-0.00682
249	0xa3ae	-0.015
250	0x2481	0.0176
251	0xa41f	-0.0161
252	0x1cf7	0.00485
253	0x27c7	0.03038
254	0xaa1e	-0.0478
255	0x9643	-0.001529

conv-b3/conv2d_36/bias f2 [256]
0	0x0dfc	0.0003653
1	0x109c	0.0005627
2	0x8bde	-0.0002401
3	0x1033	0.0005126
4	0x9b30	-0.00351
5	0x99ee	-0.002895
6	0x9cd0	-0.0047
7	0x847a	-6.83e-05
8	0x0cd1	0.000294
9	0x919a	-0.000684
10	0x953a	-0.001276
11	0x92f9	-0.000851
12	0x0c4d	0.0002625
13	0x90e9	-0.0005994
14	0x09ff	0.000183
15	0x1548	0.001289
16	0x9b0b	-0.003439
17	0x0a07	0.0001839
18	0x8c5e	-0.0002666
19	0x8c1c	-0.0002508
20	0x9a33	-0.003027
21	0x9053	-0.000528
22	0x9773	-0.001819
23	0x9b3e	-0.003536
24	0x12ff	0.000854
25	0x0d9d	0.0003426
26	0x9400	-0.000977
27	0x0156	2.04e-05
28	0x9923	-0.002508
29	0x0c33	0.0002563
30	0x8cf7	-0.000303
31	0x0ae1	0.0002099
32	0x92f0	-0.000847
33	0x90d4	-0.0005894
34	0x182a	0.002033
35	0x98ee	-0.002407
36	0x0d7d	0.000335
37	0x1506	0.001226
38	0x995c	-0.002617
39	0x94be	-0.001158
40	0x9057	-0.00053
41	0x8fae	-0.0004687
42	0x11fd	0.000731
43	0x8c9c	-0.0002813
44	0x2070	0.00867
45	0x93e8	-0.000965
46	0x9447	-0.001044
47	0x1ac8	0.003311
48	0x8b30	-0.0002193
49	0x0166	2.134e-05
50	0x8451	-6.586e-05
51	0x0f17	0.0004327
52	0x9139	-0.0006375
53	0x92aa	-0.0008135
54	0x91ec	-0.000723
55	0x90a3	-0.000566
56	0x140e	0.00099
57	0x9623	-0.001498
58	0x10c5	0.000582
59	0x0060	5.7e-06
60	0x9b17	-0.003462
61	0x8eb8	-0.00041
62	0x0184	2.31e-05
63	0x0545	8.04e-05
64	0x90aa	-0.0005693
65	0x8809	-0.0001231
66	0x17fe	0.001951
67	0x1c23	0.00404
68	0xa093	-0.008934
69	0x8c52	-0.0002637
70	0x0de8	0.0003605
71	0x1b44	0.003548
72	0x90de	-0.000594
73	0x0e72	0.0003934
74	0x14f1	0.001206
75	0x0f3f	0.0004423
76	0x14f5	0.00121
77	0x1067	0.0005374
78	0x161d	0.0014925
79	0x956a	-0.001322
80	0xa56d	-0.0212
81	0x1177	0.000667
82	0x13d9	0.000958
83	0x90a4	-0.0005665
84	0x8a95	-0.0002009
85	0x0c51	0.0002635
86	0x04a2	7.07e-05
87	0xa778	-0.02917
88	0x13a7	0.000934
89	0x19da	0.002857
90	0x9406	-0.000982
91	0x19b4	0.002785
92	0x0018	1.43e-06
93	0x0f26	0.0004363
94	0x1e8a	0.006386
95	0x9387	-0.000919
96	0x18d5	0.00236
97	0x140d	0.000989
98	0x1a90	0.003204
99	0x1a94	0.003212
100	0x10ba	0.000577
101	0x1121	0.000626
102	0x9cc4	-0.004654
103	0x0fa3	0.000466
104	0x968f	-0.001601
105	0x15fb	0.00146
106	0x159b	0.0013685
107	0x1fa2	0.007454
108	0x11b4	0.000696
109	0x9538	-0.001274
110	0x95a8	-0.001381
111	0x18c0	0.00232
112	0x94b5	-0.001149
113	0x932a	-0.0008745
114	0x9976	-0.002666
115	0x143d	0.001035
116	0x05f2	9.07e-05
117	0xa0c4	-0.00931
118	0x163a	0.00152
119	0x90df	-0.0005946
120	0x943a	-0.001032
121	0x166f	0.001571
122	0x075b	0.00011224
123	0x8e82	-0.0003972
124	0x2275	0.01261
125	0x1506	0.001226
126	0x92b1	-0.000817
127	0xa041	-0.00831
128	0x8d77	-0.0003335
129	0x2595	0.0218
130	0x98e7	-0.002394
131	0x9ae1	-0.003359
132	0x9d1d	-0.004993
133	0x1bdf	0.003843
134	0x0cb6	0.0002875
135	0x0ad3	0.0002083
136	0x82d1	-4.3e-05
137	0x9869	-0.002153
138	0x8a64	-0.000195
139	0x9802	-0.001957
140	0x916c	-0.000662
141	0x21be	0.011215
142	0x9209	-0.0007367
143	0x2003	0.007835
144	0x0d21	0.000313
145	0x11e8	0.000721
146	0x9100	-0.0006104
147	0x190b	0.002462
148	0x14ba	0.001154
149	0x141f	0.001006
150	0x1638	0.001518
151	0x8f19	-0.0004332
152	0x084f	0.0001315
153	0x857b	-8.36e-05
154	0x8dbf	-0.0003507
155	0x1b1d	0.003473
156	0x1fe9	0.007725
157	0x1e18	0.00595
158	0x9279	-0.00079
159	0x1840	0.002075
160	0x9d03	-0.004894
161	0x1947	0.002577
162	0x17b2	0.001879
163	0x94e2	-0.001192
164	0x869b	-0.0001008
165	0x1cc7	0.004665
166	0x1e51	0.00617
167	0x0f7a	0.0004563
168	0x92a2	-0.0008097
169	0x1313	0.0008636
170	0x8acf	-0.0002078
171	0x1632	0.001513
172	0x0808	0.000123
173	0x157d	0.00134
174	0x90bb	-0.0005774
175	0x9976	-0.002666
176	0x97b5	-0.001882
177	0x8843	-0.00013
178	0x8766	-0.0001129
179	0x1469	0.001077
180	0x0edf	0.0004194
181	0x1755	0.00179
182	0x8c42	-0.0002599
183	0x99a3	-0.002752
184	0x1a94	0.003212
185	0x1008	0.000492
186	0x1895	0.002237
187	0x92f4	-0.000849
188	0x98e1	-0.002382
189	0x1071	0.000542
190	0x8486	-6.9e-05
191	0x1bcf	0.003813
192	0x1319	0.0008664
193	0x145a	0.001062
194	0x97b6	-0.001883
195	0x17db	0.001918
196	0x9d33	-0.005077
197	0x1a29	0.003008
198	0x9654	-0.001545
199	0x02cd	4.274e-05
200	0x023e	3.42e-05
201	0x18e8	0.002396
202	0x96da	-0.001673
203	0x981e	-0.00201
204	0x831f	-4.76e-05
205	0x80d0	-1.24e-05
206	0x9e38	-0.006073
207	0x181b	0.002005
208	0x1f2f	0.007015
209	0x0708	0.0001073
210	0x1e2f	0.00604
211	0x90af	-0.0005717
212	0x1421	0.001008
213	0x9dab	-0.005535
214	0x0750	0.0001116
215	0x222d	0.01206
216	0x95de	-0.001432
217	0x8d3f	-0.0003202
218	0x966d	-0.001569
219	0x8db0	-0.0003471
220	0x9c33	-0.0041
221	0x9473	-0.001086
222	0x9c71	-0.004337
223	0x9c8f	-0.00445
224	0x12e4	0.000841
225	0x0925	0.000157
226	0x9550	-0.001297
227	0x915e	-0.000655
228	0x8fd5	-0.000478
229	0x144c	0.001049
230	0x20d9	0.00947
231	0x990f	-0.00247
232	0x0425	6.324e-05
233	0x19a9	0.002764
234	0x963a	-0.00152
235	0x9cc9	-0.004673
236	0x90b6	-0.000575
237	0x8d96	-0.000341
238	0x2155	0.010414
239	0xa045	-0.00834
240	0x1287	0.000797
241	0x10e0	0.000595
242	0x1824	0.002022
243	0x1e00	0.00586
244	0x0a91	0.0002004
245	0x8ea6	-0.0004058
246	0x9f0d	-0.006886
247	0x8ca6	-0.0002837
248	0x1f7d	0.007313
249	0x9531	-0.001267
250	0x1397	0.0009265
251	0x1490	0.001114
252	0x893b	-0.0001596
253	0x94ef	-0.0012045
254	0x107f	0.000549
255	0x9e44	-0.00612

conv-b2/conv2d_35/kernel f2 [3, 3, 64, 128]
0	0xa332	-0.01405
1	0x2c0c	0.06323
2	0xab2b	-0.056
3	0xa8e6	-0.03827
4	0xa71c	-0.02777
5	0xacd9	-0.07574
6	0x18be	0.002316
7	0x1c63	0.004284
8	0xaae6	-0.0539
9	0x21b1	0.011116
10	0xac1c	-0.0642
11	0xa621	-0.02394
12	0xac6a	-0.069
13	0x9f30	-0.00702
14	0xabb4	-0.06018
15	0xa93b	-0.04086
16	0x2994	0.04358
17	0xa179	-0.01069
18	0x220e	0.011826
19	0x9a7d	-0.003168
20	0x236c	0.014496
21	0x258f	0.02171
22	0xa614	-0.02374
23	0xa42d	-0.01631
24	0x9ddc	-0.005722
25	0x26b3	0.02617
26	0xa472	-0.01736
27	0xaabf	-0.0527
28	0xa7bf	-0.03026
29	0x9ef2	-0.006783
30	0xa948	-0.04126
31	0x25fb	0.02336
32	0xa7ae	-0.03
33	0xac2e	-0.0653
34	0x97b5	-0.001882
35	0x2ae7	0.05392
36	0xa581	-0.0215
37	0xaa81	-0.0508
38	0xa9f6	-0.04657
39	0x2a69	0.05008
40	0xa005	-0.00785
41	0x9c26	-0.00405
42	0x2854	0.0338
43	0x2aa0	0.05176
44	0xa90d	-0.03946
45	0xa581	-0.0215
46	0x1184	0.0006733
47	0xa686	-0.02548
48	0xae70	-0.1006
49	0x273a	0.02823
50	0xa70b	-0.02751
51	0x9ebc	-0.006577
52	0xa29b	-0.0129
53	0x2c4d	0.0672
54	0x9e34	-0.006058
55	0xa681	-0.0254
56	0xa8a8	-0.03638
57	0xa52e	-0.02023
58	0xac2d	-0.06525
59	0xa9ca	-0.04523
60	0x9e2a	-0.00602
61	0x1059	0.0005307
62	0x2b09	0.05496
63	0x2241	0.012215
64	0xa8d6	-0.03778
65	0x9abd	-0.00329
66	0xa09f	-0.009026
67	0x25e9	0.02309
68	0x2b16	0.05536
69	0x1df9	0.005833
70	0x213e	0.01024
71	0x272a	0.02798
72	0x2708	0.02747
73	0x26ae	0.0261
74	0x28ec	0.03845
75	0x2017	0.00799
76	0x1291	0.0008016
77	0xa9e3	-0.046
78	0x9acd	-0.00332
79	0xaab5	-0.0524
80	0x2524	0.02008
81	0x2bc9	0.06082
82	0xa1ec	-0.011566
83	0x28ed	0.03848
84	0xa7e5	-0.03084
85	0x2536	0.02036
86	0xa91e	-0.03998
87	0xa615	-0.02376
88	0xac0c	-0.06323
89	0x257d	0.02144
90	0x2723	0.02788
91	0xaa5b	-0.04965
92	0xa8c2	-0.03717
93	0x2ac9	0.053
94	0x2cab	0.07294
95	0xa8bb	-0.03696
96	0x1775	0.001821
97	0xa6cc	-0.02655
98	0xa858	-0.03394
99	0x2983	0.04306
100	0xaa14	-0.0475
101	0x9fbe	-0.00756
102	0x250b	0.0197
103	0xaa5b	-0.04965
104	0xa81b	-0.03207
105	0xac71	-0.0694
106	0x19d6	0.00285
107	0x2ab0	0.05225
108	0x9fcc	-0.007614
109	0xadd0	-0.0908
110	0x2683	0.02544
111	0xadfe	-0.0936
112	0x282b	0.03256
113	0x1b2e	0.003506
114	0xac37	-0.06586
115	0xac0c	-0.06323
116	0xaadd	-0.05362
117	0x2840	0.0332
118	0x1c06	0.00393
119	0x1c60	0.004272
120	0xabb3	-0.06015
121	0xa43d	-0.01656
122	0x2826	0.0324
123	0x9ebe	-0.006584
124	0x2141	0.01026
125	0x26ca	0.02652
126	0x9c7f	-0.00439
127	0xab8e	-0.05902
128	0x291d	0.03995
129	0xa8d8	-0.03784
130	0x206b	0.00863
131	0x2895	0.0358
132	0xa4ef	-0.01927
133	0x28c5	0.03726
134	0x2452	0.01688
135	0xa7a5	-0.02986
136	0xa71b	-0.02776
137	0x29b4	0.04456
138	0xa30d	-0.01377
139	0x25f6	0.02328
140	0x9c50	-0.00421
141	0x2b0b	0.05502
142	0xa814	-0.03186
143	0x27c8	0.0304
144	0xa95f	-0.04196
145	0xab87	-0.0588
146	0xa8cc	-0.03748
147	0xa60a	-0.02359
148	0x229b	0.0129
149	0xa664	-0.02496
150	0x2678	0.02527
151	0x2726	0.02792
152	0xaa1b	-0.0477
153	0x25ec	0.02313
154	0x26f0	0.0271
155	0xaa02	-0.04694
156	0x99e7	-0.002882
157	0x29b6	0.04462
158	0x2a41	0.04886
159	0xac2b	-0.0651
160	0x989f	-0.002256
161	0x26b5	0.0262
162	0xaa32	-0.0484
163	0x2a46	0.049
164	0x279e	0.02975
165	0xa84f	-0.03366
166	0x2cb3	0.0734
167	0x9951	-0.002596
168	0xa46d	-0.01729
169	0xa628	-0.02405
170	0x27fd	0.0312
171	0xa81d	-0.03214
172	0x2319	0.01386
173	0x2830	0.0327
174	0xa66d	-0.0251
175	0xa859	-0.03397
176	0x1211	0.0007405
177	0xa7c4	-0.03033
178	0xa2f8	-0.01361
179	0xa48d	-0.01778
180	0x253e	0.02048
181	0x2677	0.02525
182	0xa790	-0.02954
183	0x2049	0.00837
184	0xa0b5	-0.00919
185	0x27d2	0.03055
186	0xa547	-0.02061
187	0x1c55	0.00423
188	0xa917	-0.03976
189	0x223a	0.01216
190	0xaa86	-0.05096
191	0x2230	0.012085
192	0xaa17	-0.04758
193	0x247b	0.0175
194	0x9427	-0.001014
195	0xa967	-0.0422
196	0xa54e	-0.02072
197	0x1f1d	0.006947
198	0x273c	0.02826
199	0x1e9c	0.006454
200	0xa4af	-0.0183
201	0x2850	0.0337
202	0x1a4b	0.003073
203	0x28a0	0.03613
204	0xa9b9	-0.0447
205	0x2b2d	0.05606
206	0xa595	-0.0218
207	0xa812	-0.0318
208	0xb05f	-0.1366
209	0xa507	-0.01964
210	0x2905	0.0392
211	0xa6b7	-0.02623
212	0xa1ad	-0.011086
213	0xa9f8	-0.04663
214	0x19ec	0.002892
215	0xa158	-0.01044
216	0xaaca	-0.05304
217	0x2cd7	0.0756
218	0xa286	-0.01274
219	0x28af	0.0366
220	0x1cf5	0.00484
221	0xad15	-0.0794
222	0x9cb7	-0.004604
223	0x20e2	0.00954
224	0xa18f	-0.01086
225	0x22cb	0.01327
226	0xa444	-0.01666
227	0xace0	-0.0762
228	0xa51f	-0.02
229	0x28b0	0.03662
230	0xb0a0	-0.1445
231	0x2a3d	0.04874
232	0xaa23	-0.04794
233	0xa26a	-0.01253
234	0xa199	-0.01093
235	0xa71d	-0.02779
236	0x9ce5	-0.00478
237	0x9f84	-0.00734
238	0xa392	-0.014786
239	0x2daa	0.0885
240	0x9d32	-0.005074
241	0x248d	0.01778
242	0x2039	0.00825
243	0xa9f5	-0.04654
244	0x2bae	0.06
245	0x1d6a	0.005287
246	0xa40c	-0.01581
247	0xa59c	-0.02191
248	0x28c3	0.0372
249	0xa0f3	-0.00967
250	0x2c13	0.06366
251	0x1f34	0.007034
252	0x950b	-0.001231
253	0xa9f8	-0.04663
254	0xa55c	-0.02094
255	0xa648	-0.02454

conv-b2/conv2d_35/bias f2 [128]
0	0x1fc7	0.007595
1	0x16ca	0.0016575
2	0x02df	4.38e-05
3	0x1c17	0.003994
4	0x226d	0.01255
5	0x1513	0.001239
6	0x001c	1.67e-06
7	0x8b9c	-0.0002322
8	0x2114	0.00992
9	0x9bfe	-0.003902
10	0xa0d9	-0.00947
11	0x1867	0.00215
12	0x1b90	0.003693
13	0x1cab	0.00456
14	0x9ce2	-0.00477
15	0x18e4	0.002388
16	0x20a2	0.00905
17	0x1e0d	0.00591
18	0x20a8	0.009094
19	0x1a97	0.003218
20	0x9d80	-0.00537
21	0x0c7b	0.0002735
22	0x0d37	0.0003183
23	0x9d7c	-0.005356
24	0x1b52	0.003574
25	0xa092	-0.00893
26	0x0387	5.38e-05
27	0x9b45	-0.00355
28	0x164f	0.00154
29	0x9436	-0.001028
30	0x1033	0.0005126
31	0x192e	0.00253
32	0x1240	0.000763
33	0x1c1a	0.004005
34	0xa343	-0.01418
35	0x8b40	-0.0002213
36	0xa087	-0.00884
37	0x191a	0.002491
38	0x9d78	-0.00534
39	0x9c5e	-0.004265
40	0x131f	0.0008693
41	0x1db8	0.005585
42	0x1db3	0.005566
43	0x1d34	0.00508
44	0x1688	0.001595
45	0x0c7f	0.0002744
46	0x912f	-0.000633
47	0x2069	0.00861
48	0x9ccd	-0.00469
49	0x1bbe	0.00378
50	0x98c6	-0.00233
51	0x9af3	-0.003393
52	0x19cc	0.00283
53	0x17b4	0.001881
54	0x9d65	-0.00527
55	0x18d0	0.00235
56	0x998c	-0.002708
57	0x926c	-0.000784
58	0x9cdf	-0.004757
59	0x8b69	-0.0002261
60	0x1cb0	0.004578
61	0x21b2	0.01112
62	0x03db	5.88e-05
63	0x9982	-0.00269
64	0x13f2	0.00097
65	0x0685	9.95e-05
66	0x9b72	-0.003635
67	0x9875	-0.002176
68	0x13d3	0.000955
69	0x1dae	0.005547
70	0x2002	0.00783
71	0x9d71	-0.005314
72	0x1936	0.002544
73	0x1fd4	0.007645
74	0x2114	0.00992
75	0x1756	0.001791
76	0x9e64	-0.00624
77	0x1802	0.001957
78	0x207c	0.00876
79	0x18fc	0.002434
80	0x173c	0.001766
81	0xa2f4	-0.01358
82	0x9d8c	-0.005417
83	0x0cce	0.0002933
84	0x19cf	0.002836
85	0x94dd	-0.001187
86	0x1903	0.002447
87	0x1e92	0.006416
88	0x1667	0.001563
89	0x9a00	-0.00293
90	0x1f89	0.00736
91	0x2245	0.012245
92	0x16e6	0.001684
93	0x9c2c	-0.004074
94	0x9f12	-0.006905
95	0x0bcb	0.0002378
96	0x16cd	0.00166
97	0x9d3b	-0.005108
98	0x137c	0.0009136
99	0x94f2	-0.001207
100	0x2320	0.013916
101	0x9467	-0.001075
102	0x9c16	-0.00399
103	0x9cc4	-0.004654
104	0x97f5	-0.001943
105	0x905c	-0.000532
106	0x8daa	-0.0003457
107	0x183b	0.002066
108	0x9f3b	-0.00706
109	0x92c7	-0.0008273
110	0x1cdc	0.004745
111	0x175a	0.001795
112	0x1c63	0.004284
113	0x2414	0.01593
114	0x953b	-0.001277
115	0x1f6a	0.00724
116	0x8b6c	-0.0002265
117	0x8e90	-0.0004005
118	0xa589	-0.02162
119	0x1b81	0.003664
120	0x1769	0.001809
121	0x90e9	-0.0005994
122	0x1df3	0.00581
123	0x96b0	-0.001633
124	0xa2e0	-0.01343
125	0x1cf1	0.004826
126	0xa02e	-0.00816
127	0x1770	0.001816

conv-b1/conv2d_34/kernel f2 [3, 3, 32, 128]
0	0x20bb	0.00924
1	0xa4f7	-0.0194
2	0xa089	-0.00886
3	0xa66c	-0.02509
4	0xa722	-0.02786
5	0xa71e	-0.0278
6	0xa33e	-0.014145
7	0x1c87	0.00442
8	0x29ad	0.04434
9	0x2591	0.02174
10	0x2103	0.00979
11	0x2676	0.02524
12	0x2829	0.0325
13	0xa839	-0.033
14	0x95a7	-0.00138
15	0xa79a	-0.0297
16	0xa8cb	-0.03745
17	0x98ff	-0.00244
18	0xa637	-0.02428
19	0xa464	-0.01715
20	0x2810	0.03174
21	0xa0fa	-0.00972
22	0xa28d	-0.012794
23	0xa47c	-0.01752
24	0xa3a5	-0.01493
25	0x1e35	0.00606
26	0x1972	0.002659
27	0xa5a3	-0.02202
28	0xa054	-0.00845
29	0xa562	-0.02103
30	0x2154	0.01041
31	0xa4f1	-0.0193
32	0xa4f5	-0.01936
33	0x9a4e	-0.003078
34	0xa462	-0.01712
35	0x1bbb	0.003775
36	0x9d29	-0.00504
37	0x182a	0.002033
38	0xa697	-0.02574
39	0x9da5	-0.005512
40	0x24d0	0.0188
41	0x1ed5	0.00667
42	0xa490	-0.01782
43	0xa7fb	-0.03117
44	0xa0d5	-0.00944
45	0x1ef2	0.006783
46	0x1ef2	0.006783
47	0xa5ff	-0.02342
48	0xa2a1	-0.01295
49	0xa813	-0.03183
50	0x95d6	-0.001425
51	0x1e07	0.005886
52	0x2a11	0.0474
53	0x2550	0.02075
54	0x25d3	0.02275
55	0x0f2a	0.0004373
56	0xa76b	-0.02898
57	0x27cb	0.03044
58	0x1cca	0.004677
59	0x2943	0.0411
60	0xa0ee	-0.00963
61	0x29ee	0.04633
62	0x98f4	-0.002419
63	0xa8c7	-0.03732
64	0xa822	-0.0323
65	0x99c8	-0.002823
66	0x2b5d	0.05753
67	0x2657	0.02477
68	0xa965	-0.04214
69	0x2833	0.0328
70	0x24f5	0.01936
71	0x985c	-0.002129
72	0x282c	0.0326
73	0x26b9	0.02626
74	0x2ab3	0.05234
75	0x25a1	0.02199
76	0x247e	0.01755
77	0x2846	0.0334
78	0xa97c	-0.04285
79	0x2b9a	0.0594
80	0x203e	0.008286
81	0x2178	0.01068
82	0x2ece	0.1063
83	0xa723	-0.02788
84	0xacf9	-0.0777
85	0xa471	-0.01735
86	0xa94f	-0.04147
87	0xa9f2	-0.04645
88	0x9a13	-0.002966
89	0x22c5	0.01322
90	0x1fb6	0.00753
91	0xa506	-0.01962
92	0xa0a6	-0.00908
93	0xa4b1	-0.01833
94	0x2586	0.02158
95	0x2a72	0.05035
96	0xaadd	-0.05362
97	0x25cf	0.02269
98	0x2309	0.01374
99	0x29f6	0.04657
100	0x9e4b	-0.006145
101	0xa767	-0.02892
102	0x28e6	0.03827
103	0xa6bd	-0.02632
104	0xab37	-0.05637
105	0x1826	0.002026
106	0xa282	-0.01271
107	0x1b4a	0.00356
108	0xac4d	-0.0672
109	0x2b68	0.05786
110	0x2484	0.01764
111	0x9d35	-0.005085
112	0xa064	-0.008575
113	0xa67b	-0.02531
114	0x28ba	0.03693
115	0xa7c6	-0.03036
116	0x272f	0.02806
117	0x2407	0.01573
118	0x209c	0.009
119	0xa6d0	-0.02661
120	0x9e43	-0.006115
121	0x2352	0.0143
122	0x2948	0.04126
123	0x2497	0.01793
124	0xacc7	-0.07465
125	0xab17	-0.0554
126	0x220c	0.01181
127	0x28e0	0.0381
128	0x24e8	0.01917
129	0xa8ec	-0.03845
130	0x2008	0.00787
131	0x2998	0.0437
132	0xa61d	-0.02388
133	0x1a2c	0.003014
134	0x2a8f	0.05124
135	0xa639	-0.0243
136	0x20fb	0.00973
137	0xa672	-0.02518
138	0x2a94	0.0514
139	0x2a2b	0.0482
140	0x299a	0.04376
141	0x2796	0.02963
142	0xa760	-0.02881
143	0xa144	-0.010284
144	0xaa59	-0.0496
145	0xaa2b	-0.0482
146	0xa1be	-0.011215
147	0x24c1	0.01857
148	0x3014	0.1274
149	0xa96b	-0.04233
150	0x26ed	0.02705
151	0xa8ef	-0.03854
152	0xa8b9	-0.0369
153	0xa639	-0.0243
154	0x99d5	-0.002848
155	0xa8cf	-0.03757
156	0xa2ea	-0.013504
157	0x94aa	-0.001139
158	0xa4b4	-0.01837
159	0xab32	-0.0562
160	0xaac6	-0.05292
161	0x2442	0.01663
162	0xa9fc	-0.04675
163	0x2872	0.03473
164	0xad01	-0.0782
165	0x8ab7	-0.0002049
166	0x9a53	-0.003088
167	0x285f	0.03415
168	0xae07	-0.0942
169	0x29d2	0.04547
170	0xac9a	-0.0719
171	0x29e5	0.04605
172	0xa944	-0.04114
173	0xa3e4	-0.01541
174	0x2a70	0.0503
175	0x14ff	0.00122
176	0x24f7	0.0194
177	0x248d	0.01778
178	0x2856	0.03387
179	0x9892	-0.002232
180	0x25de	0.02292
181	0x2610	0.02368
182	0x16b2	0.001635
183	0xace8	-0.07666
184	0x2bea	0.06183
185	0xa7bd	-0.03023
186	0x9ed8	-0.006683
187	0x98f4	-0.002419
188	0xad93	-0.0871
189	0x2903	0.03915
190	0xa48b	-0.01775
191	0xa9d2	-0.04547
192	0x21ac	0.01108
193	0xa7de	-0.03073
194	0xaac9	-0.053
195	0xa0ea	-0.0096
196	0x1c67	0.0043
197	0x1c02	0.003914
198	0x1e1d	0.00597
199	0xa867	-0.0344
200	0x219a	0.01094
201	0xa7b7	-0.03014
202	0x2591	0.02174
203	0x273b	0.02824
204	0x21aa	0.01106
205	0x1efd	0.006824
206	0x24d8	0.01892
207	0xa144	-0.010284
208	0x2202	0.011734
209	0x1abd	0.00329
210	0x24b2	0.01834
211	0xa0e3	-0.009544
212	0x92bd	-0.0008225
213	0xa3d4	-0.01529
214	0x9c28	-0.00406
215	0x2493	0.01787
216	0x2a1a	0.04767
217	0x1708	0.001717
218	0x226a	0.01253
219	0xac05	-0.0628
220	0xa14f	-0.01037
221	0xaa16	-0.04755
222	0xa60d	-0.02364
223	0x25b8	0.02234
224	0xa832	-0.03278
225	0x2b1c	0.05554
226	0xa27e	-0.01268
227	0x9d02	-0.00489
228	0xa59a	-0.02188
229	0x1792	0.001848
230	0xa2bf	-0.013176
231	0xa966	-0.04218
232	0xaa88	-0.05103
233	0xa45d	-0.01704
234	0xa75b	-0.02873
235	0x2a78	0.05054
236	0xa53c	-0.02045
237	0x2030	0.00818
238	0xad6d	-0.0848
239	0x2713	0.02763
240	0x9d73	-0.00532
241	0xa5e3	-0.023
242	0x2541	0.02052
243	0xa10d	-0.009865
244	0x21ee	0.01158
245	0xa780	-0.0293
246	0x97fc	-0.001949
247	0x2588	0.0216
248	0xa2fb	-0.01363
249	0x983a	-0.002064
250	0x2ad8	0.05347
251	0xa43f	-0.01659
252	0x25bc	0.0224
253	0xa851	-0.03372
254	0x23db	0.01534
255	0xa1eb	-0.01156

conv-b1/conv2d_34/bias f2 [128]
0	0x9017	-0.0004992
1	0x2686	0.02548
2	0x10bc	0.000578
3	0x2157	0.01043
4	0xa069	-0.00861
5	0x1f6a	0.00724
6	0xa94b	-0.04135
7	0x2544	0.02057
8	0xa179	-0.01069
9	0xa6d2	-0.02664
10	0xa2bf	-0.013176
11	0x9dd0	-0.005676
12	0x210b	0.00985
13	0xa4ae	-0.01828
14	0x9b40	-0.00354
15	0x29c8	0.04517
16	0x1e69	0.00626
17	0xa50f	-0.01976
18	0x2065	0.00858
19	0x2787	0.0294
20	0x1d29	0.00504
21	0x1d32	0.005074
22	0x9e1f	-0.005978
23	0x1f2f	0.007015
24	0xa291	-0.012825
25	0xa528	-0.02014
26	0xa806	-0.03143
27	0xa2ea	-0.013504
28	0x2432	0.01639
29	0x2616	0.02377
30	0x9cc3	-0.00465
31	0x18a6	0.00227
32	0x9cab	-0.00456
33	0x231c	0.013885
34	0xa347	-0.01421
35	0xa4ab	-0.01823
36	0xa56b	-0.02116
37	0x2078	0.00873
38	0xa0b1	-0.00916
39	0x2b80	0.0586
40	0xa286	-0.01274
41	0xa888	-0.0354
42	0x2007	0.007866
43	0xa065	-0.00858
44	0x26e2	0.02689
45	0xa6b3	-0.02617
46	0x9521	-0.001252
47	0x1f2c	0.007004
48	0x1cb4	0.004593
49	0x2751	0.02858
50	0xa358	-0.01434
51	0x27fe	0.03122
52	0x9efb	-0.006817
53	0x29cb	0.04526
54	0x26a2	0.02591
55	0x25a8	0.0221
56	0xa47f	-0.01756
57	0x28fb	0.0389
58	0xa863	-0.03427
59	0x2b39	0.05643
60	0x28ae	0.03656
61	0xa125	-0.01005
62	0x1cee	0.004814
63	0x1ef9	0.00681
64	0x1d14	0.00496
65	0x2440	0.0166
66	0x28f0	0.03857
67	0x29fd	0.04678
68	0xa88a	-0.03546
69	0x1e8d	0.006397
70	0x250c	0.01971
71	0xa08b	-0.00887
72	0x2498	0.01794
73	0x211e	0.009995
74	0xa753	-0.02861
75	0xa96e	-0.04242
76	0x2589	0.02162
77	0xa989	-0.04324
78	0xa12b	-0.01009
79	0x9b4f	-0.003569
80	0xa6a2	-0.02591
81	0x9e24	-0.005997
82	0xa750	-0.02856
83	0x2194	0.010895
84	0x22e0	0.01343
85	0xa214	-0.01187
86	0x9c58	-0.004242
87	0x24fb	0.01945
88	0x946e	-0.001081
89	0x0e3b	0.0003803
90	0xa696	-0.02573
91	0x278b	0.02946
92	0x222e	0.01207
93	0x1c0f	0.003963
94	0xa80d	-0.03165
95	0xa0ed	-0.00962
96	0x9c3b	-0.00413
97	0xaa2b	-0.0482
98	0x21c3	0.01125
99	0x20a1	0.00904
100	0x1c6b	0.004314
101	0x2835	0.03287
102	0x1cd6	0.004723
103	0xa545	-0.02058
104	0x15de	0.001432
105	0x1414	0.000996
106	0xa646	-0.0245
107	0xab06	-0.05487
108	0xacb5	-0.07355
109	0xa0b7	-0.00921
110	0x15b6	0.001394
111	0x1fe4	0.007706
112	0x0ab0	0.0002041
113	0x9f5e	-0.007195
114	0x9f39	-0.007053
115	0x2145	0.01029
116	0x16f6	0.001699
117	0x28d2	0.03766
118	0x255d	0.02095
119	0x0e1a	0.0003724
120	0x9f55	-0.00716
121	0x241d	0.01607
122	0xa822	-0.0323
123	0xa1e2	-0.01149
124	0xa604	-0.0235
125	0xa034	-0.00821
126	0x1bb1	0.003756
127	0xa50c	-0.01971

Mask-Encoder/conv-b0/instance_normalization_28/Reshape_1 f2 [1, 1, 1, 64]
0	0x1e02	0.005867
1	0x20f1	0.00965
2	0x23b6	0.01506
3	0x1935	0.002542
4	0x238d	0.01475
5	0x2d39	0.0816
6	0x2569	0.02113
7	0x216a	0.010574
8	0xa8ab	-0.03647
9	0x2394	0.0148
10	0x29a1	0.04398
11	0x20ec	0.00961
12	0x233b	0.01412
13	0x1a6f	0.003141
14	0x22ba	0.01314
15	0x2220	0.01196
16	0x2394	0.0148
17	0x20ef	0.009636
18	0x21a6	0.01103
19	0x2152	0.01039
20	0xa676	-0.02524
21	0x2bbc	0.06042
22	0x2974	0.0426
23	0x2826	0.0324
24	0x23ff	0.01562
25	0x2706	0.02744
26	0x23d4	0.01529
27	0xac35	-0.06573
28	0x22ba	0.01314
29	0xace1	-0.07623
30	0x2ab2	0.0523
31	0x2440	0.0166
32	0xabc1	-0.06058
33	0x1cfe	0.004875
34	0xa7ac	-0.02997
35	0x9bf0	-0.003876
36	0xa3d8	-0.01532
37	0x95e8	-0.001442
38	0x9c18	-0.003998
39	0x9997	-0.00273
40	0x111e	0.0006247
41	0x87e0	-0.00012016
42	0x2473	0.01738
43	0x9646	-0.001532
44	0xab1e	-0.0556
45	0x232b	0.014
46	0x9956	-0.002605
47	0x1157	0.000652
48	0xabe9	-0.0618
49	0x9a88	-0.00319
50	0x225b	0.01241
51	0x0f58	0.0004482
52	0x2904	0.03918
53	0xa413	-0.01591
54	0xa486	-0.01767
55	0x1c9d	0.004505
56	0x1bdf	0.003843
57	0x9f76	-0.007286
58	0x95c5	-0.001409
59	0x140b	0.000987
60	0x2ac8	0.05298
61	0x135a	0.0008974
62	0x1811	0.001986
63	0x1baf	0.003752

Mask-Encoder/conv-b0/instance_normalization_28/Reshape f2 [1, 1, 1, 64]
0	0x297a	0.0428
1	0x305d	0.1364
2	0x2df4	0.093
3	0x21ab	0.01107
4	0x33ea	0.2473
5	0x2c01	0.06256
6	0x2c96	0.07166
7	0x2c81	0.0704
8	0x2361	0.01441
9	0x2dda	0.09143
10	0x2a9d	0.05167
11	0x2faa	0.11975
12	0x2da4	0.08813
13	0x2799	0.02968
14	0x2dd8	0.0913
15	0x2e56	0.099
16	0x269d	0.02583
17	0x2ca9	0.0728
18	0x2ca7	0.0727
19	0x29a9	0.04422
20	0x2115	0.009926
21	0x2d2b	0.08075
22	0x2d12	0.0792
23	0x2c04	0.06274
24	0x273a	0.02823
25	0x2ade	0.05365
26	0x303c	0.1323
27	0x2a6c	0.05017
28	0x2d0a	0.07874
29	0x2a1f	0.04782
30	0x2c81	0.0704
31	0x2e2c	0.09644
32	0x2a60	0.0498
33	0x2bea	0.06183
34	0x238e	0.014755
35	0x2c7d	0.0701
36	0x270b	0.02751
37	0x3121	0.1603
38	0x2ed5	0.10675
39	0x2dd5	0.0911
40	0x274d	0.02852
41	0x2ebe	0.10535
42	0x2bcd	0.06094
43	0x2cb2	0.07336
44	0x2b52	0.0572
45	0x2567	0.0211
46	0x2cd0	0.0752
47	0x2f2a	0.11194
48	0x29b0	0.04443
49	0x2bab	0.0599
50	0x2a06	0.04706
51	0x3171	0.17
52	0x2e9e	0.1034
53	0x2c11	0.06354
54	0x2b2e	0.0561
55	0x303c	0.1323
56	0x2d48	0.0825
57	0x309b	0.1439
58	0x301f	0.1288
59	0x3482	0.2817
60	0x2d56	0.0834
61	0x2b8f	0.05905
62	0x2d2c	0.0808
63	0x2cc5	0.0745

Mask-Encoder/conv-b1/instance_normalization_29/Reshape_1 f2 [1, 1, 1, 128]
0	0x9f58	-0.00717
1	0xac36	-0.0658
2	0xac95	-0.0716
3	0xa6ad	-0.02608
4	0xa5d2	-0.02274
5	0xa41d	-0.01607
6	0xa402	-0.01566
7	0xaad4	-0.05334
8	0xa7e1	-0.03078
9	0x9966	-0.002636
10	0xaade	-0.05365
11	0x1ac0	0.003296
12	0xa450	-0.01685
13	0x9d69	-0.005283
14	0xac57	-0.0678
15	0xac1e	-0.06433
16	0xabc2	-0.0606
17	0x9e05	-0.00588
18	0xac19	-0.064
19	0xac36	-0.0658
20	0x1b83	0.003668
21	0x20e5	0.00956
22	0xac01	-0.06256
23	0xa7a1	-0.0298
24	0xa85a	-0.034
25	0xa19b	-0.01095
26	0xab8b	-0.05893
27	0xa9e5	-0.04605
28	0xacc5	-0.0745
29	0xa5cb	-0.02263
30	0xa196	-0.01091
31	0xa76b	-0.02898
32	0xa991	-0.0435
33	0xa54b	-0.02068
34	0xa491	-0.01784
35	0x1b5c	0.003593
36	0x9af6	-0.003399
37	0x1d11	0.004948
38	0xa4a3	-0.01811
39	0xac68	-0.06885
40	0xa487	-0.01768
41	0xa74a	-0.02847
42	0xa40f	-0.01585
43	0xa676	-0.02524
44	0xacad	-0.07306
45	0xac3b	-0.0661
46	0xa86c	-0.03455
47	0xa6e3	-0.0269
48	0xa1dc	-0.011444
49	0xa440	-0.0166
50	0x16ca	0.0016575
51	0xac47	-0.06683
52	0x2072	0.00868
53	0x9cfb	-0.004864
54	0x94c2	-0.001162
55	0xa7fb	-0.03117
56	0xa3f1	-0.01551
57	0xac68	-0.06885
58	0xac17	-0.0639
59	0xabfe	-0.06244
60	0xa13e	-0.01024
61	0xac17	-0.0639
62	0xa1b0	-0.01111
63	0xa920	-0.04004
64	0xaa5f	-0.04977
65	0xa8f6	-0.03876
66	0xa92a	-0.04034
67	0xa4f8	-0.01941
68	0xacfd	-0.07794
69	0xa5aa	-0.02213
70	0xac0d	-0.0633
71	0xa5cf	-0.02269
72	0xa2cd	-0.01328
73	0x9dd6	-0.0057
74	0xa2c0	-0.01318
75	0xac65	-0.06866
76	0xac05	-0.0628
77	0xa40e	-0.01584
78	0x961d	-0.0014925
79	0xa9b2	-0.0445
80	0xa701	-0.02736
81	0x9534	-0.00127
82	0xac14	-0.0637
83	0xa59b	-0.0219
84	0xac82	-0.07043
85	0x9cef	-0.004818
86	0xa8f5	-0.03873
87	0xa82d	-0.03262
88	0xa31d	-0.01389
89	0xa68b	-0.02556
90	0xa5a9	-0.02211
91	0xa0ff	-0.00976
92	0xacb5	-0.07355
93	0xa4b8	-0.01843
94	0xa408	-0.01575
95	0xaa2a	-0.04816
96	0xa7f8	-0.03113
97	0xac24	-0.0647
98	0xa1e4	-0.011505
99	0xa28e	-0.0128
100	0xac95	-0.0716
101	0x9a70	-0.003143
102	0xa15e	-0.01048
103	0xa8d0	-0.0376
104	0xab5f	-0.0576
105	0x106b	0.0005393
106	0xa234	-0.012115
107	0xa4ff	-0.01952
108	0xac18	-0.06396
109	0xac4a	-0.067
110	0xa355	-0.01432
111	0x202d	0.008156
112	0x99c1	-0.00281
113	0xac10	-0.0635
114	0x9c1f	-0.004025
115	0xa80c	-0.03162
116	0xa6cc	-0.02655
117	0xa05d	-0.00852
118	0xa681	-0.0254
119	0xac0b	-0.0632
120	0xa3e3	-0.0154
121	0xa12d	-0.01011
122	0xa4e5	-0.01912
123	0xa73a	-0.02823
124	0xac3e	-0.0663
125	0xaa70	-0.0503
126	0xa568	-0.02112
127	0xa4a0	-0.01807

Mask-Encoder/conv-b1/instance_normalization_29/Reshape f2 [1, 1, 1, 128]
0	0x2e53	0.0988
1	0x2936	0.0407
2	0x2a99	0.05154
3	0x2d3b	0.0817
4	0x2d6c	0.0847
5	0x2d60	0.084
6	0x2d13	0.0793
7	0x2b14	0.0553
8	0x2dab	0.08856
9	0x2e8f	0.1025
10	0x2903	0.03915
11	0x2c6a	0.069
12	0x2d2b	0.08075
13	0x3021	0.129
14	0x2a38	0.04858
15	0x2b37	0.05637
16	0x2ad3	0.0533
17	0x2d0c	0.07886
18	0x2ac5	0.0529
19	0x29fa	0.0467
20	0x29fa	0.0467
21	0x2d02	0.07825
22	0x2b67	0.05783
23	0x2df4	0.093
24	0x2c22	0.0646
25	0x2ba0	0.05957
26	0x2c6d	0.06915
27	0x2d19	0.07965
28	0x2cb9	0.0738
29	0x2dd8	0.0913
30	0x2abe	0.05267
31	0x2d23	0.08026
32	0x2da9	0.08844
33	0x2c28	0.06494
34	0x2e09	0.0943
35	0x2e69	0.10016
36	0x2dad	0.0887
37	0x2eb5	0.1048
38	0x2c14	0.0637
39	0x2c21	0.0645
40	0x2cf7	0.0776
41	0x2c33	0.0656
42	0x2dc4	0.0901
43	0x2d75	0.08527
44	0x2ac6	0.05292
45	0x2a62	0.04987
46	0x2e85	0.10187
47	0x2d00	0.0781
48	0x2e29	0.09625
49	0x2d20	0.0801
50	0x2dee	0.09265
51	0x2ae6	0.0539
52	0x2d74	0.0852
53	0x2e5e	0.0995
54	0x2f0a	0.11
55	0x2ca0	0.07227
56	0x2dee	0.09265
57	0x2cf9	0.0777
58	0x2a27	0.04807
59	0x2c03	0.0627
60	0x2d58	0.0835
61	0x2b0e	0.0551
62	0x2ce3	0.07635
63	0x2dd1	0.0909
64	0x2bac	0.05994
65	0x2c1e	0.06433
66	0x2ddb	0.0915
67	0x2cac	0.073
68	0x2b8e	0.05902
69	0x2f7f	0.1171
70	0x2b90	0.05908
71	0x2b8a	0.0589
72	0x2a4a	0.04913
73	0x2c35	0.06573
74	0x2cd9	0.07574
75	0x2c18	0.06396
76	0x2b35	0.0563
77	0x2db4	0.0891
78	0x2e1e	0.0956
79	0x2c3b	0.0661
80	0x2d88	0.0864
81	0x2d82	0.08606
82	0x2a1b	0.0477
83	0x2c93	0.0715
84	0x2c32	0.06555
85	0x2e3e	0.09753
86	0x2d3c	0.0818
87	0x2db2	0.089
88	0x2a0b	0.0472
89	0x2cdd	0.076
90	0x2c7e	0.0702
91	0x2d6f	0.0849
92	0x2ad0	0.05322
93	0x2cae	0.0731
94	0x2c02	0.0626
95	0x2a68	0.05005
96	0x2cbe	0.0741
97	0x2b8a	0.0589
98	0x2d83	0.0861
99	0x2d43	0.0822
100	0x2a97	0.05148
101	0x2e46	0.098
102	0x2c4c	0.06714
103	0x2dd0	0.0908
104	0x2d79	0.0855
105	0x2d67	0.0844
106	0x2cb9	0.0738
107	0x2cce	0.0751
108	0x2bfe	0.06244
109	0x2c84	0.07056
110	0x2d9a	0.0875
111	0x2dae	0.08875
112	0x2c92	0.0714
113	0x2c5c	0.0681
114	0x2c9a	0.0719
115	0x2ca7	0.0727
116	0x2c6e	0.0692
117	0x3041	0.1329
118	0x2e37	0.0971
119	0x2a98	0.0515
120	0x2bc7	0.06076
121	0x2cd0	0.0752
122	0x2d8b	0.0866
123	0x2c8e	0.07117
124	0x2e8b	0.10223
125	0x2cc7	0.07465
126	0x2d86	0.0863
127	0x2d5e	0.08386

Mask-Encoder/conv-b2/instance_normalization_30/Reshape_1 f2 [1, 1, 1, 128]
0	0xa796	-0.02963
1	0x153c	0.001278
2	0xa6a1	-0.0259
3	0x25cb	0.02263
4	0xa480	-0.01758
5	0xa9a0	-0.04395
6	0xa6b8	-0.02625
7	0xa8de	-0.03802
8	0xa809	-0.03152
9	0xa645	-0.02449
10	0xa460	-0.01709
11	0x987c	-0.00219
12	0xa1f8	-0.01166
13	0xa9a3	-0.04404
14	0xa514	-0.01984
15	0x19eb	0.00289
16	0xa8d7	-0.0378
17	0x9f66	-0.007225
18	0x9f1a	-0.006935
19	0xa4f8	-0.01941
20	0x9e0f	-0.005917
21	0xa285	-0.01273
22	0xa825	-0.03238
23	0xa6de	-0.02682
24	0xa979	-0.04276
25	0x243a	0.01651
26	0xa73f	-0.0283
27	0xa132	-0.01015
28	0xac43	-0.0666
29	0xab30	-0.05615
30	0xa850	-0.0337
31	0xa353	-0.014305
32	0xa67e	-0.02536
33	0xa6a4	-0.02594
34	0x1ced	0.00481
35	0xa528	-0.02014
36	0xa6e1	-0.02687
37	0xa906	-0.03925
38	0xa755	-0.02864
39	0xa77b	-0.02922
40	0xaac9	-0.053
41	0xa054	-0.00845
42	0xa082	-0.008804
43	0xa224	-0.01199
44	0xa684	-0.02545
45	0x9b3b	-0.00353
46	0x117a	0.0006685
47	0x1acc	0.003319
48	0xa89f	-0.0361
49	0xa279	-0.01264
50	0xa4be	-0.01852
51	0xa53e	-0.02048
52	0xa65f	-0.02489
53	0xaa41	-0.04886
54	0xa403	-0.01567
55	0x1685	0.001592
56	0x14d6	0.001181
57	0xa4f2	-0.01932
58	0x9435	-0.001027
59	0xa8be	-0.03705
60	0x9c29	-0.004063
61	0xa6a6	-0.02597
62	0x265b	0.02483
63	0xaa7f	-0.05075
64	0xa8af	-0.0366
65	0xa2dd	-0.013405
66	0xac99	-0.07184
67	0xa8e4	-0.0382
68	0xa9e4	-0.04602
69	0xa52a	-0.02017
70	0xa86e	-0.0346
71	0xad14	-0.07935
72	0x9ae4	-0.003365
73	0xa0d6	-0.009445
74	0xa3ed	-0.01548
75	0xaae7	-0.05392
76	0xa91a	-0.03986
77	0xa438	-0.01648
78	0xa450	-0.01685
79	0xa652	-0.02469
80	0xa49b	-0.01799
81	0xa988	-0.0432
82	0xa101	-0.00977
83	0x162d	0.001508
84	0xac35	-0.06573
85	0xa618	-0.0238
86	0xa217	-0.011894
87	0xa815	-0.0319
88	0xab28	-0.0559
89	0xa401	-0.01564
90	0xa96e	-0.04242
91	0xa39c	-0.01486
92	0xa91c	-0.03992
93	0x164d	0.001538
94	0xa9fe	-0.0468
95	0xa4eb	-0.01921
96	0xab74	-0.05823
97	0xa687	-0.0255
98	0xaa24	-0.04797
99	0x20a2	0.00905
100	0x9f94	-0.0074
101	0xab85	-0.05875
102	0xa762	-0.02884
103	0xa9f5	-0.04654
104	0xa758	-0.02869
105	0xa844	-0.03333
106	0xa6c3	-0.02641
107	0xa4c9	-0.01869
108	0xa8ac	-0.0365
109	0xa454	-0.0169
110	0x9f18	-0.006927
111	0xa3e1	-0.01539
112	0xa6cf	-0.0266
113	0xa67d	-0.02534
114	0x26be	0.02634
115	0xa5f3	-0.02324
116	0xa455	-0.01692
117	0xa648	-0.02454
118	0xa3fc	-0.015594
119	0xa28c	-0.01279
120	0xa7b7	-0.03014
121	0xa690	-0.02563
122	0xa7be	-0.03024
123	0xa362	-0.01442
124	0x2750	0.02856
125	0xa857	-0.0339
126	0xa3a6	-0.01494
127	0xa88a	-0.03546

Mask-Encoder/conv-b2/instance_normalization_30/Reshape f2 [1, 1, 1, 128]
0	0x2c24	0.0647
1	0x2afb	0.05453
2	0x2b33	0.05624
3	0x29d5	0.04556
4	0x2e63	0.0998
5	0x2b58	0.05737
6	0x2c78	0.0698
7	0x2bba	0.06036
8	0x2d7d	0.08575
9	0x29d0	0.0454
10	0x2dcd	0.09064
11	0x2d7d	0.08575
12	0x2d2b	0.08075
13	0x2bc0	0.06055
14	0x2d43	0.0822
15	0x2f00	0.1094
16	0x2c75	0.06964
17	0x2e00	0.09375
18	0x2edc	0.1072
19	0x2e59	0.0992
20	0x2a4b	0.04916
21	0x2cea	0.0768
22	0x2ba9	0.05984
23	0x2d67	0.0844
24	0x2e9d	0.10333
25	0x2ad4	0.05334
26	0x2a3e	0.04877
27	0x2dd4	0.09106
28	0x2dd7	0.09125
29	0x2c3b	0.0661
30	0x2a97	0.05148
31	0x2bb7	0.06027
32	0x2c0d	0.0633
33	0x2aa5	0.0519
34	0x2f71	0.1163
35	0x2b4d	0.05704
36	0x2df1	0.09283
37	0x2d21	0.08014
38	0x2cc6	0.0746
39	0x2952	0.04156
40	0x2a1e	0.0478
41	0x2f11	0.1104
42	0x29e2	0.04596
43	0x2cc5	0.0745
44	0x2ac5	0.0529
45	0x28e2	0.03815
46	0x2d2f	0.081
47	0x2d40	0.08203
48	0x28f1	0.0386
49	0x2a06	0.04706
50	0x2e2a	0.0963
51	0x2e6b	0.1003
52	0x2d69	0.08453
53	0x2ce8	0.07666
54	0x2e3e	0.09753
55	0x2adf	0.05368
56	0x2d47	0.08246
57	0x2df3	0.09296
58	0x2d93	0.0871
59	0x2edd	0.10724
60	0x2e3b	0.09735
61	0x2b6e	0.05804
62	0x2c95	0.0716
63	0x2dfb	0.09344
64	0x2e4d	0.09845
65	0x2d08	0.0786
66	0x2c33	0.0656
67	0x2a6e	0.05023
68	0x28ea	0.0384
69	0x2f0b	0.11005
70	0x2b92	0.05914
71	0x294e	0.04144
72	0x2e1b	0.0954
73	0x2c3a	0.06604
74	0x2e45	0.09796
75	0x2d1b	0.0798
76	0x2954	0.04163
77	0x2cd2	0.0753
78	0x2e66	0.1
79	0x2cde	0.07605
80	0x2b8c	0.05896
81	0x2cba	0.07385
82	0x2d46	0.0824
83	0x2650	0.02466
84	0x2c89	0.07086
85	0x2b00	0.0547
86	0x2c84	0.07056
87	0x2ae2	0.05377
88	0x2d08	0.0786
89	0x2c62	0.0685
90	0x2cf4	0.0774
91	0x2e8d	0.10236
92	0x2b94	0.0592
93	0x2b93	0.05917
94	0x2be2	0.06158
95	0x2fd8	0.12256
96	0x2cad	0.07306
97	0x2c57	0.0678
98	0x2e13	0.0949
99	0x2849	0.03348
100	0x2fe3	0.1232
101	0x29c7	0.04514
102	0x2afc	0.05457
103	0x2d17	0.0795
104	0x2ce4	0.0764
105	0x2d28	0.08057
106	0x29f4	0.0465
107	0x2a78	0.05054
108	0x2d63	0.08417
109	0x28d9	0.03787
110	0x2ef6	0.10876
111	0x2bbc	0.06042
112	0x2975	0.04263
113	0x3028	0.1299
114	0x2c27	0.0649
115	0x2e60	0.0996
116	0x2dd0	0.0908
117	0x2d40	0.08203
118	0x2e6e	0.10046
119	0x2937	0.04074
120	0x2c0d	0.0633
121	0x2c0d	0.0633
122	0x2d36	0.0814
123	0x2d90	0.0869
124	0x2dba	0.0895
125	0x289a	0.03595
126	0x2d7e	0.0858
127	0x2c32	0.06555

Mask-Encoder/conv-b3/instance_normalization_31/Reshape_1 f2 [1, 1, 1, 256]
0	0xab64	-0.05774
1	0xab64	-0.05774
2	0xa854	-0.0338
3	0xa17a	-0.0107
4	0xa155	-0.010414
5	0xa036	-0.008224
6	0xa6ec	-0.02704
7	0x10b4	0.000574
8	0xa8a9	-0.0364
9	0xa0c2	-0.00929
10	0xa39d	-0.01487
11	0xadb9	-0.0894
12	0xabba	-0.06036
13	0xa8dc	-0.03796
14	0xa79a	-0.0297
15	0xad4a	-0.08264
16	0xac2a	-0.06506
17	0xa849	-0.03348
18	0xa6fc	-0.02728
19	0x9c09	-0.00394
20	0xa5af	-0.0222
21	0xa496	-0.01791
22	0xa212	-0.011856
23	0x9ea7	-0.006496
24	0x9c83	-0.004406
25	0x9552	-0.001299
26	0xa795	-0.02962
27	0xa6d0	-0.02661
28	0xa991	-0.0435
29	0xa337	-0.01409
30	0xa584	-0.02155
31	0xad57	-0.08344
32	0xa662	-0.02493
33	0xa531	-0.02028
34	0x9ae3	-0.003363
35	0xa29a	-0.01289
36	0xa6c6	-0.02646
37	0xa6c5	-0.02644
38	0xa375	-0.014565
39	0xac62	-0.0685
40	0xa5fc	-0.02338
41	0xa90d	-0.03946
42	0xabef	-0.06198
43	0xa57c	-0.02142
44	0x1e90	0.00641
45	0xa4cc	-0.01874
46	0xa5ec	-0.02313
47	0x2219	0.01191
48	0xa823	-0.03232
49	0xa9d7	-0.04562
50	0xa980	-0.04297
51	0xa215	-0.01188
52	0xa81b	-0.03207
53	0x9876	-0.002178
54	0xaa08	-0.04712
55	0xacb5	-0.07355
56	0x98f8	-0.002426
57	0xad1f	-0.08
58	0xaa09	-0.04715
59	0xac28	-0.06494
60	0x9ab4	-0.003273
61	0xabaa	-0.05988
62	0xa3bf	-0.01513
63	0xa46d	-0.01729
64	0xa4be	-0.01852
65	0xac49	-0.06696
66	0xa7dc	-0.0307
67	0x249b	0.01799
68	0x19c2	0.002811
69	0xa780	-0.0293
70	0xab98	-0.05933
71	0xac17	-0.0639
72	0xa90d	-0.03946
73	0xaa2a	-0.04816
74	0xaa81	-0.0508
75	0xaa10	-0.04736
76	0x9d4d	-0.005177
77	0xac7e	-0.0702
78	0xaae7	-0.05392
79	0xa1e6	-0.01152
80	0xaddf	-0.09174
81	0xa3b3	-0.01504
82	0xa6c4	-0.02643
83	0xa60d	-0.02364
84	0xa90e	-0.0395
85	0xaaa8	-0.052
86	0xa531	-0.02028
87	0x229b	0.0129
88	0xa912	-0.0396
89	0x25ce	0.02267
90	0xa793	-0.02959
91	0x1c33	0.0041
92	0xa937	-0.04074
93	0xa12b	-0.01009
94	0xac88	-0.0708
95	0xa933	-0.04062
96	0xa920	-0.04004
97	0xabe0	-0.06152
98	0xa875	-0.03482
99	0xac55	-0.0677
100	0xab63	-0.0577
101	0xa86e	-0.0346
102	0xa098	-0.00897
103	0xa24a	-0.01228
104	0x9d08	-0.004913
105	0xa3f1	-0.01551
106	0xa814	-0.03186
107	0xa5f1	-0.02321
108	0xaa5d	-0.0497
109	0xab91	-0.0591
110	0xad9c	-0.08765
111	0xac4a	-0.067
112	0xadaf	-0.0888
113	0xa775	-0.02913
114	0xaadb	-0.05356
115	0xa9b3	-0.04453
116	0xaaa4	-0.05188
117	0x1b37	0.003523
118	0xad9d	-0.0877
119	0xac1e	-0.06433
120	0xa78f	-0.02953
121	0xa51f	-0.02
122	0xab52	-0.0572
123	0xaa65	-0.04996
124	0xa4b1	-0.01833
125	0xa91c	-0.03992
126	0xac89	-0.07086
127	0x1ab4	0.003273
128	0x20cb	0.00936
129	0x2620	0.02393
130	0xa29a	-0.01289
131	0xa521	-0.02003
132	0xaa00	-0.04688
133	0xac7d	-0.0701
134	0xa593	-0.02177
135	0x1952	0.002598
136	0xa58a	-0.02164
137	0xa845	-0.03336
138	0xa9c6	-0.0451
139	0xa457	-0.01695
140	0xac07	-0.0629
141	0xa6ba	-0.02628
142	0x9ba6	-0.003735
143	0xaca2	-0.0724
144	0xa6ea	-0.02701
145	0xa862	-0.03424
146	0xac13	-0.06366
147	0xae49	-0.0982
148	0xa4e0	-0.01904
149	0xa628	-0.02405
150	0xac82	-0.07043
151	0xa9c1	-0.04495
152	0xa21b	-0.011925
153	0xa374	-0.01456
154	0xaca1	-0.0723
155	0xaa20	-0.04785
156	0x9417	-0.0009985
157	0x9d8f	-0.00543
158	0xa8c4	-0.03723
159	0x1edb	0.006695
160	0x244b	0.01677
161	0xa85a	-0.034
162	0x1e59	0.0062
163	0xab8d	-0.059
164	0xa459	-0.01698
165	0xa87d	-0.03506
166	0x2088	0.00885
167	0xa9ac	-0.0443
168	0x1ecc	0.006638
169	0x2071	0.008675
170	0xa97c	-0.04285
171	0x1a28	0.003006
172	0x9b9d	-0.003717
173	0xa161	-0.010506
174	0x9afd	-0.003412
175	0xab27	-0.05588
176	0xab7a	-0.0584
177	0x2054	0.00845
178	0xad53	-0.0832
179	0xa58d	-0.02168
180	0xa79d	-0.02974
181	0xa61a	-0.02383
182	0xab4a	-0.05695
183	0xa896	-0.03583
184	0x9035	-0.0005136
185	0xaa5b	-0.04965
186	0xac5c	-0.0681
187	0xa1a1	-0.010994
188	0x2047	0.008354
189	0xa6fa	-0.02725
190	0xa94a	-0.04132
191	0xa364	-0.014435
192	0xa650	-0.02466
193	0xac92	-0.0714
194	0xa8d8	-0.03784
195	0x1870	0.002167
196	0x20ad	0.00913
197	0xa885	-0.0353
198	0xa95b	-0.04184
199	0xa66a	-0.02505
200	0xa9d8	-0.04565
201	0xad0c	-0.07886
202	0x2381	0.014656
203	0xaca1	-0.0723
204	0xad1c	-0.07983
205	0x20fa	0.00972
206	0x9b54	-0.003578
207	0xa667	-0.02501
208	0x016b	2.164e-05
209	0xa515	-0.01985
210	0x1dd8	0.005707
211	0xa547	-0.02061
212	0xaa7f	-0.05075
213	0xa23a	-0.01216
214	0xa197	-0.01092
215	0xa85b	-0.03403
216	0x99aa	-0.002766
217	0xa992	-0.04352
218	0xa606	-0.02353
219	0xa6b0	-0.02612
220	0x139a	0.000928
221	0x96d4	-0.001667
222	0x2177	0.01067
223	0xabcc	-0.0609
224	0xaafb	-0.05453
225	0xa917	-0.03976
226	0xac27	-0.0649
227	0xa7be	-0.03024
228	0xa82e	-0.03265
229	0xab97	-0.0593
230	0xaba6	-0.05975
231	0xa99e	-0.04388
232	0xa8f3	-0.03867
233	0xaca7	-0.0727
234	0xaa37	-0.04855
235	0xa423	-0.01616
236	0xa3b9	-0.01508
237	0xab4c	-0.057
238	0x2472	0.01736
239	0x9905	-0.00245
240	0xac1e	-0.06433
241	0xa340	-0.01416
242	0xa811	-0.03177
243	0xadef	-0.0927
244	0xa804	-0.03137
245	0xa924	-0.04016
246	0xa0cf	-0.00939
247	0xaad1	-0.05325
248	0xa0ad	-0.00913
249	0xa1b1	-0.011116
250	0xa74a	-0.02847
251	0xacbe	-0.0741
252	0xa775	-0.02913
253	0xa932	-0.0406
254	0xa843	-0.0333
255	0xad3f	-0.082

Mask-Encoder/conv-b3/instance_normalization_31/Reshape f2 [1, 1, 1, 256]
0	0x26e7	0.02696
1	0x2648	0.02454
2	0x2686	0.02548
3	0x1e2a	0.00602
4	0x2870	0.03467
5	0x245b	0.01701
6	0x25af	0.0222
7	0x2a91	0.0513
8	0x2513	0.01982
9	0x1ccb	0.00468
10	0x27fb	0.03117
11	0x2aff	0.05466
12	0x28d7	0.0378
13	0x261b	0.02385
14	0x25ad	0.02217
15	0x28d8	0.03784
16	0x266d	0.0251
17	0x2488	0.0177
18	0x2d2b	0.08075
19	0x2829	0.0325
20	0x2af6	0.05438
21	0x25ff	0.02342
22	0x28a6	0.03632
23	0x27a6	0.02988
24	0x2c89	0.07086
25	0x2bd1	0.06107
26	0x2199	0.01093
27	0x20f3	0.00967
28	0x2807	0.03146
29	0x1f43	0.00709
30	0x270c	0.02753
31	0x2b37	0.05637
32	0x2464	0.01715
33	0x2662	0.02493
34	0x2b34	0.05627
35	0x253b	0.02043
36	0x26bf	0.02635
37	0x2755	0.02864
38	0x2564	0.02106
39	0x26ed	0.02705
40	0x2461	0.0171
41	0x2710	0.02759
42	0x2830	0.0327
43	0x226e	0.01256
44	0x2cfd	0.07794
45	0x2835	0.03287
46	0x25d5	0.02278
47	0x2c6d	0.06915
48	0x2400	0.01563
49	0x267b	0.02531
50	0x254f	0.02074
51	0x2912	0.0396
52	0x227c	0.012665
53	0x2b71	0.05814
54	0x26b3	0.02617
55	0x2a5a	0.04962
56	0x2a84	0.0509
57	0x29e8	0.04614
58	0x25fd	0.02339
59	0x2851	0.03372
60	0x2a4e	0.04926
61	0x2841	0.03323
62	0x2214	0.01187
63	0x23e0	0.01538
64	0x202d	0.008156
65	0x28a0	0.03613
66	0x2807	0.03146
67	0x2cbc	0.074
68	0x2a3c	0.0487
69	0x280a	0.03156
70	0x265e	0.02487
71	0x2a69	0.05008
72	0x283c	0.03308
73	0x2544	0.02057
74	0x2791	0.02956
75	0x27b7	0.03014
76	0x2b35	0.0563
77	0x28cf	0.03757
78	0x276f	0.02904
79	0x293e	0.04095
80	0x2c0a	0.0631
81	0x20a9	0.0091
82	0x2546	0.0206
83	0x2c27	0.0649
84	0x25ad	0.02217
85	0x2625	0.024
86	0x228b	0.01278
87	0x2dca	0.09045
88	0x258d	0.02168
89	0x2cc8	0.0747
90	0x29b6	0.04462
91	0x298b	0.0433
92	0x27b3	0.03008
93	0x2a08	0.04712
94	0x2a6d	0.0502
95	0x2839	0.033
96	0x2ab3	0.05234
97	0x28a6	0.03632
98	0x2a13	0.04745
99	0x28e9	0.03836
100	0x26ed	0.02705
101	0x2948	0.04126
102	0x2880	0.03516
103	0x2a49	0.0491
104	0x28c5	0.03726
105	0x2457	0.01695
106	0x2644	0.02448
107	0x2a40	0.04883
108	0x25ad	0.02217
109	0x28bb	0.03696
110	0x2aba	0.05255
111	0x28d1	0.03763
112	0x2ac7	0.05295
113	0x241f	0.0161
114	0x287e	0.0351
115	0x27ae	0.03
116	0x27bc	0.03021
117	0x2bed	0.06192
118	0x2c49	0.06696
119	0x271e	0.0278
120	0x24ef	0.01927
121	0x2390	0.01477
122	0x26b4	0.02618
123	0x2674	0.0252
124	0x2ad1	0.05325
125	0x27b4	0.03009
126	0x2b98	0.05933
127	0x2ccc	0.07495
128	0x2a68	0.05005
129	0x2d75	0.08527
130	0x2a46	0.049
131	0x27ad	0.02998
132	0x2baa	0.05988
133	0x2888	0.0354
134	0x263b	0.02434
135	0x2ae1	0.05374
136	0x223c	0.01218
137	0x282d	0.03262
138	0x2518	0.0199
139	0x286b	0.03452
140	0x2a32	0.0484
141	0x2afc	0.05457
142	0x2857	0.0339
143	0x2ad3	0.0533
144	0x27d4	0.03058
145	0x253c	0.02045
146	0x28ea	0.0384
147	0x2a17	0.04758
148	0x207b	0.00875
149	0x2776	0.02914
150	0x2796	0.02963
151	0x27d1	0.03053
152	0x26f2	0.02713
153	0x2189	0.01081
154	0x29eb	0.04623
155	0x281d	0.03214
156	0x2ac8	0.05298
157	0x27a4	0.02985
158	0x2761	0.02882
159	0x29dd	0.0458
160	0x2b8b	0.05893
161	0x2a63	0.0499
162	0x2866	0.03436
163	0x29aa	0.04425
164	0x2479	0.01747
165	0x2b0d	0.05508
166	0x2c2f	0.06537
167	0x2482	0.01761
168	0x2938	0.04077
169	0x2d03	0.0783
170	0x2458	0.01697
171	0x2956	0.0417
172	0x22a4	0.01297
173	0x2c83	0.0705
174	0x243b	0.01653
175	0x28a1	0.03616
176	0x255b	0.02092
177	0x2794	0.0296
178	0x2b65	0.05777
179	0x24c7	0.01866
180	0x2802	0.0313
181	0x2875	0.03482
182	0x2b29	0.05594
183	0x2615	0.02376
184	0x297a	0.0428
185	0x27d9	0.03065
186	0x292b	0.04037
187	0x249c	0.018
188	0x28ef	0.03854
189	0x2b1b	0.0555
190	0x2436	0.01645
191	0x2c12	0.0636
192	0x2796	0.02963
193	0x2938	0.04077
194	0x2a03	0.04697
195	0x26ac	0.02606
196	0x2d46	0.0824
197	0x2994	0.04358
198	0x2772	0.02908
199	0x242b	0.01628
200	0x25ac	0.02216
201	0x2c3a	0.06604
202	0x2d22	0.0802
203	0x27d8	0.03064
204	0x2ab7	0.05246
205	0x2ae7	0.05392
206	0x288a	0.03546
207	0x2a63	0.0499
208	0x297a	0.0428
209	0x2419	0.016
210	0x2b06	0.05487
211	0x261f	0.02391
212	0x28d3	0.0377
213	0x2c24	0.0647
214	0x1de3	0.00575
215	0x2987	0.04318
216	0x2537	0.02037
217	0x2751	0.02858
218	0x25c2	0.02249
219	0x2443	0.01665
220	0x28a7	0.03635
221	0x2361	0.01441
222	0x2c13	0.06366
223	0x2937	0.04074
224	0x25ff	0.02342
225	0x27a1	0.0298
226	0x2921	0.04007
227	0x25f4	0.02325
228	0x29c7	0.04514
229	0x2a66	0.05
230	0x2d03	0.0783
231	0x26a3	0.02592
232	0x273c	0.02826
233	0x29d0	0.0454
234	0x259e	0.02194
235	0x2710	0.02759
236	0x268a	0.02554
237	0x260c	0.02362
238	0x2d07	0.07855
239	0x2ba3	0.05966
240	0x26e3	0.0269
241	0x287d	0.03506
242	0x282b	0.03256
243	0x2cf4	0.0774
244	0x2595	0.0218
245	0x259e	0.02194
246	0x2b71	0.05814
247	0x2512	0.0198
248	0x2ccc	0.07495
249	0x25bf	0.02245
250	0x28fc	0.03894
251	0x2b4c	0.057
252	0x22b7	0.013115
253	0x29fa	0.0467
254	0x26bb	0.02629
255	0x2abb	0.05258
